public/assets/mancala_agent_final.onnx (onnx, 781590 bytes, 19 tensors)

functional_1/dense_9_1/Cast/ReadVariableOp:0 f4 [32, 6]
00000000: 4c0f ccbe ec79 adbd e978 a0bd 421a c7bd
00000010: 0511 3bbe 28ba 56bc 1b96 963c c901 cd3e
00000020: b1be c63d 9cfe 7bbd 5c80 833e faaf 8b3e
00000030: 4133 9ebd f306 263e 3642 693e 04c9 9c3d
00000040: 6fac dd3d fcb7 c4be 300a 8abe acaa 14be
00000050: 9022 b83b 1e9c d8be 4c86 833e aad7 b5be
00000060: c2f0 743e 1fa1 bc3d 9dff cb3d 9eb4 ef3c
00000070: 70e1 be3e 7336 5fbd 5e65 17be baae 4ebe
00000080: 387f 54bd 4f25 62bd 492d 66be 7351 093e
00000090: f015 77be b98e 87be 974b 013e 559a 3abb
000000a0: b405 9e3e 2a8d a3be b547 e8bd 916a 983e
000000b0: 5c43 8dbe 106f 76be 6f9c d1bd f991 cf3c
000000c0: 96b8 d03d 8123 833e a017 7b3e 4770 3fbe
000000d0: d584 5dbd 58be b73e 8112 683e 55a6 37be
000000e0: ac74 be3e 349e 7e3c 862a c3be 4951 183e
000000f0: d597 c4be 5c38 513d ed6f a53b d304 59be
00000100: 1a0f 4cbe 8151 ecbd 9a5d 07be 0f83 67be
00000110: 62ac bcbe 871c b0bd cd7f c4bb eab7 3dbe
00000120: 7a4e 5fbe 7a50 5e3c 165e dc3d d961 c9be
00000130: 4d80 f33d c326 a63e 8e1b 9d3e 0300 dbbe
00000140: 50c7 83bd 9e8b af3e edaf 98be 3d1a ae3e
00000150: ab5f 933e 71ee d7bd 0d23 953d 3cdd a3be
00000160: cb9b dbbe fdef 713e fecc 733d d049 c73d
00000170: 70ed e1bd ef39 7c3e cc0c afbe 8e6e 8abe
00000180: bee3 c03d 9090 9cbe 6ffe d13e a59a 2a3e
00000190: 290d ba3d 1fda 0c3e e408 803e 1dd8 85be
000001a0: 09c1 9dbe 5165 a03e 0812 39be c2f2 a2be
000001b0: 591e 633d 7ca9 003e 22a9 51be c3fe 8b3e
000001c0: ea6d 44be 9f4d 7e3e 16f4 d9be 81df b4bd
000001d0: b9a1 c2bd 3a90 9a3e b8d8 76be b011 88be
000001e0: 0012 a5bb 61d4 8abd 692c 393e b047 fc3d
000001f0: fd89 9ebd 71cc 47be ed81 c73e 5041 c5be
00000200: a895 02bc f34f a4be 6afb 04be a225 b8be
00000210: ffdb a0be 5e85 d9bd 4d3c 013e 0132 2abe
00000220: 21a8 bebd cd3c a9be 39bd 54be 9918 8b3e
00000230: e87a 03be a228 953e 7d23 aa3e 2b61 9f3e
00000240: 5d4c abbd 38a1 533c 6807 663e 7822 64be
00000250: 5df2 323e 7e73 593e 37c2 3ebd fa1a 4f3e
00000260: 31d1 7bbe a348 943c a7aa bf3e abb9 763c
00000270: 3907 c1be 31f5 523e 79d4 bfbe 2e00 f33d
00000280: 139d be3e 48f5 b2be cc76 53be d2aa 5b3e
00000290: 1382 f03d 8e5a 323e 5176 413d 9469 3d3e
000002a0: 47bf 113c 1cb8 993e addf d6be 3482 d43e
000002b0: e052 8f3e 1243 ae3e 3be0 b2be e2b2 b5be
000002c0: cf3b c8be 66af a3be bb18 9f3d 0343 d43d
000002d0: 19e4 78be 2b0c 313e 9d2f 7dbe d625 b9be
000002e0: cbd5 a2be 26e0 323e 1a16 aebe da9a afbe
000002f0: 9118 993e f277 bb3e 65e1 5d3e c89c 853e
-0.3985542 -0.084705204 -0.07835562 -0.09721805 -0.18268211 -0.013105907 0.018382123 0.40040424
0.0970434 -0.06152211 0.25683868 0.27282697 -0.0772462 0.16213588 0.22779164 0.07655528
0.10823905 -0.3842162 -0.26960897 -0.14518231 0.0056193545 -0.42306608 0.25688398 -0.355161
0.23919967 0.09210419 0.09960864 0.02926093 0.3728137 -0.054495286 -0.14784762 -0.2018384
-0.051879138 -0.05521136 -0.22478212 0.13409977 -0.24129462 -0.26476076 0.12626491 -0.0028473337
0.30863726 -0.31943637 -0.11341802 0.29768804 -0.27590454 -0.24065804 -0.102349155 0.02533816
0.10191457 0.25613025 0.24520731 -0.18695174 -0.054081757 0.35887408 0.22663309 -0.17934544
0.3719839 0.015540648 -0.3811838 0.14874758 -0.3839709 0.05107914 0.005048743 -0.21193247
-0.19927636 -0.11538983 -0.132193 -0.22608589 -0.36850268 -0.08599191 -0.0059966804 -0.18527189
-0.2180728 0.013568992 0.10760133 -0.39332464 0.11889706 0.32451448 0.30685085 -0.42773446
-0.064345 0.34286207 -0.2982172 0.34004393 0.28783926 -0.10543526 0.07282076 -0.32004726
-0.42892298 0.23626705 0.059521668 0.097308755 -0.11031616 0.24631475 -0.3418945 -0.27037472
0.094184384 -0.30579042 0.4101443 0.16660555 0.09084541 0.13755082 0.25006783 -0.26141444
-0.30811337 0.31327298 -0.18073285 -0.31825835 0.055448864 0.12564653 -0.20474675 0.27342805
-0.19182554 0.24834298 -0.42569035 -0.088316925 -0.095035024 0.3018816 -0.24106109 -0.26575994
-0.005037546 -0.06778789 0.18083347 0.12318361 -0.07741163 -0.19511582 0.38966313 -0.38526392
-0.007970251 -0.32092246 -0.12986532 -0.35966212 -0.31417844 -0.10621141 0.12620659 -0.16620637
-0.09309412 -0.330542 -0.20775308 0.27167204 -0.12839854 0.29132563 0.332302 0.3112882
-0.083641745 0.0129168555 0.22463763 -0.22278774 0.17475267 0.21235463 -0.046571936 0.20225134
-0.24591519 0.018101042 0.37434885 0.015058915 -0.37700823 0.20601346 -0.3746679 0.11865269
0.37229213 -0.3495276 -0.20650786 0.21451882 0.1174356 0.17417356 0.047231976 0.18497306
0.008895702 0.30023277 -0.41967526 0.41505587 0.27992916 0.34035546 -0.349367 -0.3548804
-0.3910813 -0.31969756 0.07768389 0.10364344 -0.24305762 0.17289798 -0.24725194 -0.3616168
-0.31803736 0.17468318 -0.34001237 -0.3429783 0.29901555 0.3661495 0.21668012 0.26096177

functional_1/dense_9_1/BiasAdd/ReadVariableOp:0 f4 [6]
00000000: c811 033c 005d c7bc b9ea a0bb 7e0e 003b
00000010: 1794 debb 1071 443c
0.007999845 -0.024336338 -0.0049107936 0.0019539888 -0.006792556 0.011989847

functional_1/dense_8_1/Cast/ReadVariableOp:0 f4 [64, 32]
00000000: 385a 363d 1c7b bfbd 7c9d 243e 2e2f 383e
00000010: 36fa 793e f541 25bd 06a5 1c3d fdf3 0e3d
00000020: 3c67 93be 5238 7abe 269c 74bd 63f8 793e
00000030: ddfc 47be 2f0e 933d e364 29bd ed97 febc
00000040: cdcd 273e 18c6 883d 4eef 6e3e 1d97 bc3d
00000050: d33a 5a3e 3293 2fbe 9b80 34be 2a9f 83be
00000060: ab47 703c 9829 3abd f9a8 cabc fc58 8f3e
00000070: 6240 8bbe dc2d 2d3d f63d 6fbe e4ac be3d
00000080: 7d8d 5ebe e28f 2cbe bef0 18be f189 69be
00000090: 947b 893e 42b4 84be 3366 053e 4bec 4fbe
000000a0: edc1 95bd 1530 133d 6a63 023e 0690 a03d
000000b0: bc8d 4e3e a3fc 8abe 1093 59be c2d9 9ebe
000000c0: da48 a9bb e48d 923e d871 af3d 2451 86be
000000d0: 80f4 8dbe b54f 503d 4ffa 503e ba0c 36be
000000e0: 7146 1dbe 6837 803e 45e4 f93d 41f1 08be
000000f0: d54e 803e a377 c1bd 7b19 18be f327 40be
00000100: 97a7 3ebe 8341 46bd 81c9 05bc 7942 c13d
00000110: 5cd3 b73d 89e7 6abe 5278 84be 26bb 92be
00000120: 52e0 233e cc0d a7bd bb47 55be 4af0 b8bd
00000130: eac1 893d bd78 473e 4f85 723e 4714 21be
00000140: e261 08be aa2f fabd 349a 343e 5f40 543e
00000150: 2df3 333e 15c2 253e 2b5b c5bd e9b2 913d
00000160: 347f 55be fe12 93be b881 7e3e f5b9 473d
00000170: 7814 a5bd 4969 d53d 4eb7 19be 3582 593e
00000180: 6c30 b8bd eb3e 2dbe bf6e 243b efce 573e
00000190: 2934 7dbe 0582 1b3e c35c 8cbe 89b8 cebd
000001a0: 8965 283d e578 673d 7fb3 a1be 3137 533e
000001b0: 2df1 243e a504 ac3c f6f3 92bd 4fd2 863e
000001c0: b770 873e 0014 1cbe f520 ccbd 4c22 b8bd
000001d0: 715b 8a3e 7d2d 76bd 67c2 a3bd e519 273e
000001e0: 77a2 fdbc a139 f8bd f14f 653e 0ea3 463e
000001f0: 50f1 983d 63a6 80be 4ae3 ce3d 765f 99bd
00000200: 3932 cabc a1ec 50be 3a22 48be ad7d 603d
00000210: 0564 79be a8db 7d3e 9916 97be b82f 30be
00000220: 774c 593a baca 50bd 4bcd 3cbd 981a 533e
00000230: 620b 403e aaf7 cdbd 62b9 453e d48d aabd
00000240: 83c5 9c3d b61b 043e 3764 85bd 1a26 8d3e
00000250: 0513 623e 1551 ce3c 8289 5abe f670 923b
00000260: 6956 9abe f818 14bd 619d 0bbd 1983 803e
00000270: cd6a f9bd 6a55 9a3e 055c 8d3e d1c4 323e
00000280: e08f 243e 4a94 63be cf8a 513e 0fad 72be
00000290: 9966 9ebe c437 e73d 3777 2ebe a096 923e
000002a0: 47c4 063e 6c35 f2bc 8fb8 0b3e 0c24 fbbd
000002b0: 8d0c 8bbe 4f43 24bd 4af4 6b3d 51da 54be
000002c0: 310d 5bbe 8762 953d 4676 bdbd e051 e93d
000002d0: f050 10bd 95d3 4f3e 90f4 abbd e328 80be
000002e0: 2286 803d 3baf 20be 5575 253e fda2 1cbe
000002f0: 958a 0dbe 5cda 133e 6365 a1be 0ec6 013e
00000300: 32c0 ed3d 4b83 ec3d 6be1 3c3d 4c69 1e3d
00000310: c05e adbd c2b2 6bbe da29 e83d 40b3 c13d
00000320: b6e3 83bd d651 a63d 798a 033e d5b6 ffbd
00000330: 3644 543e 4ae0 f8bd a659 9d3e 7283 263e
00000340: cd9e 183e 8252 15be 6015 2dbe 0cb4 00be
00000350: 6eac 69bb 6fad 1a3e e3d3 87bd a6a8 613e
00000360: 8484 3d3e d202 373e e5a2 883e a0c9 42be
00000370: a9ef 8f3d af44 d0bc a102 94be a566 b53c
00000380: 29b9 693e 5ea3 94bd aeaa 06bc 6073 fb3c
00000390: 897b 70be 9274 243e 0197 d93d 52ca fcbc
000003a0: 03cc 18be 960c 6cbe 653b 35bb 4907 f33c
000003b0: 2466 f0bd fe17 8d3d dc1c 08bd acdf 4b3e
000003c0: 63d2 84bd eae9 b63a 2c6e a63c 35e9 483e
000003d0: 0ef0 843e 06e6 d13d b503 7dbe d230 823e
000003e0: 79e4 0fbe 0a4b 51be 52fd 003d 40b0 83be
000003f0: b4b5 68bb 5e5a 423e 9236 e03c 25aa 7fbe
0.044519633 -0.09349653 0.160757 0.17986748 0.24411854 -0.040346105 0.038243316 0.034900654
-0.287897 -0.24435547 -0.059719227 0.24411158 -0.19530053 0.0718044 -0.04135598 -0.031078303
0.163871 0.066784084 0.23333475 0.0920851 0.21311502 -0.17145994 -0.17627184 -0.2570737
0.0146655245 -0.045449823 -0.024738776 0.27997577 -0.27197558 0.042280063 -0.2336348 0.0931032
-0.21733661 -0.16851762 -0.14935586 -0.22806527 0.26852095 -0.25918776 0.13027267 -0.20304982
-0.07312379 0.035934526 0.12733236 0.0783997 0.20171255 -0.27145872 -0.21247506 -0.3102551
-0.0051661553 0.2862388 0.08566636 -0.2623378 -0.277256 0.050857265 0.20407985 -0.17778292
-0.15358903 0.25042272 0.12201742 -0.13373281 0.25060144 -0.09446647 -0.1485347 -0.1876524
-0.18618618 -0.04840232 -0.008165718 0.09436507 0.089758605 -0.22939886 -0.25873047 -0.28658408
0.1600354 -0.081569284 -0.20828144 -0.090302065 0.06726439 0.19479652 0.23683666 -0.15730391
-0.1331859 -0.122161224 0.17636949 0.2072768 0.17573233 0.16187318 -0.096365295 0.071142025
-0.20849305 -0.28725427 0.24854171 0.048761327 -0.08060545 0.10420472 -0.15011331 0.21241076
-0.08993611 -0.16918533 0.0025090424 0.21075033 -0.24726929 0.15186317 -0.27414522 -0.10093791
0.041112456 0.05651178 -0.31582257 0.20626523 0.16107626 0.020998308 -0.07175438 0.26332328
0.26453182 -0.15242004 -0.099672236 -0.089909166 0.2702289 -0.060101975 -0.07996064 0.16318472
-0.030961258 -0.12120367 0.22393776 0.19398138 0.07467902 -0.25126943 0.10101946 -0.07488911
-0.024682151 -0.20402767 -0.19544306 0.054807354 -0.2435456 0.24790823 -0.29509428 -0.17205703
0.0008289287 -0.050974585 -0.04609422 0.20615613 0.18754342 -0.10057004 0.19308999 -0.08327833
0.0765486 0.12901196 -0.06513255 0.27568132 0.22077568 0.025185147 -0.21341518 0.0044690324
-0.3014405 -0.036156625 -0.034085635 0.2510002 -0.12178574 0.3014329 0.27609268 0.17457892
0.16070509 -0.22224537 0.20463108 -0.23698829 -0.3093765 0.11289933 -0.17037664 0.28630543
0.13160811 -0.02956649 0.13644622 -0.12262735 -0.27158013 -0.040103253 0.05760602 -0.20786406
-0.21391751 0.07294183 -0.092510745 0.113925695 -0.035233438 0.20295556 -0.08396256 -0.25031194
0.06275584 -0.15691845 0.1615804 -0.1529655 -0.13822396 0.14438766 -0.31522664 0.12673208
0.11608924 0.1154848 0.046113413 0.038674638 -0.08465338 -0.2301741 0.113361076 0.09458017
-0.06439917 0.08121078 0.12845792 -0.12486044 0.20729145 -0.12152155 0.3073246 0.1626108
0.14904328 -0.14582255 -0.16902685 -0.12568682 -0.0035655755 0.15105222 -0.06632211 0.2203699
0.18507582 0.1787217 0.2668678 -0.19022226 0.070281334 -0.025423376 -0.28908256 0.022143671
0.22824539 -0.07257722 -0.008219404 0.030694664 -0.23484625 0.16060093 0.10624505 -0.030858193
-0.14921574 -0.23051676 -0.002765381 0.02966656 -0.11738232 0.06889342 -0.033230647 0.19909543
-0.064854406 0.001395521 0.020316206 0.19620211 0.25964397 0.102489516 -0.24708445 0.25427872
-0.14051999 -0.20438781 0.031491585 -0.25720406 -0.0035508694 0.18979785 0.027369771 -0.24967249

functional_1/dense_8_1/BiasAdd/ReadVariableOp:0 f4 [32]
00000000: 725b 9fb9 728f 6e3b 3270 b9bc 0899 82bc
00000010: e5a4 09bc c74f b9bb 5eac 25bc 676a 443a
00000020: 547d 43bc f7ea 443b fedf 15bc 076c 85bb
00000030: 8ce0 b23b bed3 96bc 0ddb 7c3c d74f c9bb
00000040: 140d 88bb c70d 0cbc 2f20 973b 8a7b 42bc
00000050: 2086 66bc 0298 043b 5490 adbb 4749 d1bb
00000060: a5a4 4d3c 9950 54bb ed88 3cbc 056f 6abc
00000070: 6506 cdbb ed27 24bc a766 0cbc 8f9f fc3b
-0.00030394975 0.0036401418 -0.022636507 -0.015942112 -0.00840113 -0.005655262 -0.010111896 0.0007492662
-0.011931736 0.0030047277 -0.009147642 -0.0040717158 0.005458897 -0.018411513 0.015433085 -0.006143551
-0.0041519497 -0.008548207 0.004611991 -0.011870274 -0.014070064 0.0020232205 -0.0052967463 -0.006386909
0.012551461 -0.0032396673 -0.011507255 -0.014308696 -0.006256866 -0.010019285 -0.008569396 0.0077094506

functional_1/dense_7_1/Cast/ReadVariableOp:0 f4 [128, 64]
00000000: 808c 81bb 3331 37bc 4207 4b3e e12d 273e
00000010: 2bc7 433e 5761 1f3e 16d1 1dbe 3d16 b83d
00000020: a9b3 973c 15b9 cf3c 05e8 a53d 7d48 0e3e
00000030: d12b dc3c 8779 2b3e dc19 523d d499 55bd
00000040: 178e 193d 0bd9 25be a9eb 2d3e 8882 41be
00000050: 6ace 70bd c6ff ce3d f26a bb3d f6e0 38be
00000060: 9dc8 ae3d 5a47 a5bd 3cb5 9bbd 9ef7 283e
00000070: 8af0 59bd e091 c13d 9d29 00bd 89e5 08be
00000080: 0aba 3f3b f221 b23d 8c5b 88bd b073 433e
00000090: 3dde 1d3e 8c61 c23c 5d76 5b3e b05e 783c
000000a0: 2b8f 87bd 086b e0bd 249f 413d 0a90 323e
000000b0: f840 bcbd e4fe 193e 1d28 223e 6a12 383e
000000c0: e454 f7bd 198f 1d3e 1476 8cbd 1d76 aabd
000000d0: 71d4 4ebe 9f60 7ebd a678 023e 2221 3d3e
000000e0: 1d0f 313e e026 f3bc 753d 893d 9d9b 50be
000000f0: cda6 8dbd efaa e3bd 313c eabc 71f1 d8bd
00000100: a899 913d 55c5 63be c6fd c13d 238e 8d3d
00000110: ff13 ebbd 3939 983d 4bb9 43be 552d 2cbd
00000120: 26be 52bc a8be c03d 9697 153e 2454 4ebe
00000130: 2785 a6bc 4c89 e5bd a431 c93d 8669 debd
00000140: af00 1b3e a471 023d 2da4 033e c7f4 fcbd
00000150: cd23 cbbd 0111 5fbe 30da b43d 3c43 2d3d
00000160: 50d5 f6bd 5012 57bb 72e8 2f3e e112 27be
00000170: beec a93d 2cfb 06bc c35d bc3c f60b e9bd
00000180: fab1 2bbc 0b4a 1a3d 69fc 043e d743 313e
00000190: 31a9 3bb8 432c f53d 8f8f 0c3d 8478 173e
000001a0: 57d2 583e 5f97 aebd 8e59 ca3d a937 833d
000001b0: 9ddb d9bd 58be 733c 3a99 b1bd 5d45 a83b
000001c0: 428d 18bd b44d 033e e201 e9bd 7e4e 2b3e
000001d0: 7b56 383e da64 6e3c 57dc db3d f848 38be
000001e0: 4b0c 413e dbd3 2d3e 8589 bc3d ecbf 053e
000001f0: 77df 153e 7591 ee3d 9b00 cb3d f7d2 16be
00000200: 6db9 253e 0e2d 503e 733e 8f3c e027 6e3c
00000210: 06fe db3d 0aac 203e 1bf1 b2bd 44ad 163d
00000220: 819d 4f3e dc32 4bbc ae73 ab3d 452c 85bd
00000230: fbf7 0abd 391b 04be 626c 653d 422e 47be
00000240: 2683 93bd 28b7 a5bd 2f73 1f3e 6f82 d63d
00000250: 570b 2fbe 7bad 933c 7816 9d3c 2956 1bbe
00000260: 226c 0a3e 004e ed3d 11b0 fdbc 31a2 a7bd
00000270: 67fb 7bbb 926e 993d 901d b63c 513a d93d
00000280: 3d0b fb3d 3c8f c13c 25d5 e93d 1268 513e
00000290: ec52 71bd 0354 18bd c6dd 553d 6d6b 103d
000002a0: 9589 133e 0033 4cbe 5b15 df3d 5bb9 d43c
000002b0: 3f4a 313e 1b00 95bd 633a 303e caa1 7fbd
000002c0: cd0c 543d f629 853d ad90 553e 9c1d 03bc
000002d0: 9ad6 3ebe 7c0b 41bd f104 483e 1544 0e3e
000002e0: d63c c8bd f6b6 173c 0265 4b3e a40a 0fbe
000002f0: 9c36 15be 6616 4f3e 3675 523e 0dd5 113e
00000300: c6e7 373d 5904 4e3e f5a2 8e3d 4010 14be
00000310: 83f9 17be b6eb 82bb a745 5e3e 3267 ef3d
00000320: e1a5 febd 8415 033d 22cc debd 80d0 d93d
00000330: b829 5cbe a652 5f3e 665f cf3d 6468 673d
00000340: 2281 203e 3be6 253d 32bb 593d 7a55 48be
00000350: 761d 9c3d 212d 0a3e 20ca 42bd c71c 0d3e
00000360: 40f8 54be 790e 30be 598e c6bc 38c9 1cbe
00000370: 8ab3 403e 7109 9ebc 4f36 593c 8d8d dfbd
00000380: dc85 60be 8062 e33d d80b 3c3e 792b d0bd
00000390: 19dc 9ebd b2e7 273c bb0f e33d 4a98 333c
000003a0: 4ceb 573e 8350 e63d 835a 35be 8f4c 96bd
000003b0: 2644 2fbe 1f9b 523e f456 3b3e 7f38 403e
000003c0: 672c a3bd 06c9 ec3c 6698 e23d 7c0b 0e3e
000003d0: ba4b 85bd 561a 313e c2ff 80bd 6791 3c3e
000003e0: 76fc 123e 5b10 4d3c 1bfc ffbd ad01 1ebe
000003f0: fb38 423e d6b5 01bd 572a 3c3e 444d 913d
-0.0039535165 -0.011181164 0.19826987 0.16326095 0.19118945 0.15564476 -0.15411791 0.089886166
0.018518286 0.025356809 0.08100895 0.1389484 0.026876362 0.16745578 0.051294193 -0.052148655
0.037489023 -0.16196077 0.16984428 -0.1889745 -0.0587906 0.10107379 0.091512576 -0.18054566
0.08534358 -0.0807025 -0.07602927 0.16500708 -0.05320791 0.094516516 -0.031289686 -0.1336881
0.0029255175 0.08697881 -0.06658086 0.190871 0.15416808 0.023728155 0.21431871 0.015159294
-0.06619104 -0.109579146 0.04727091 0.17437759 -0.09192079 0.1503864 0.15835615 0.17975774
-0.120767385 0.15386619 -0.06858459 -0.083233096 -0.20198227 -0.062103864 0.12741336 0.1846967
0.17290922 -0.029681623 0.06701175 -0.20371862 -0.0691658 -0.11116587 -0.028593155 -0.10592926
0.07109386 -0.22243245 0.094722316 0.06911876 -0.11478423 0.07432789 -0.19113652 -0.04203542
-0.012862718 0.09411365 0.14608607 -0.20149285 -0.020327164 -0.11207828 0.09823921 -0.10859971
0.1513698 0.031846657 0.12855597 -0.12351375 -0.09918938 -0.2178383 0.088306785 0.042300448
-0.12052405 -0.0032817312 0.17178515 -0.16315795 0.08297108 -0.008238595 0.022993928 -0.113792345
-0.010479445 0.03766827 0.12986912 0.17311035 -4.4741846e-05 0.11971333 0.034316596 0.14792067
0.21173988 -0.085249655 0.098803625 0.06407101 -0.10637591 0.014876924 -0.08671804 0.005135222
-0.03724409 0.1282261 -0.11377312 0.16729161 0.1800174 0.014550412 0.10735386 -0.17996585
0.18852346 0.16975348 0.09205917 0.13061494 0.14636026 0.116488375 0.09912225 -0.14728914
0.16184016 0.20329687 0.017485833 0.014535874 0.107418105 0.15690628 -0.087373935 0.036786333
0.20274927 -0.012402263 0.083716735 -0.06502584 -0.0339279 -0.1290101 0.056011565 -0.1945124
-0.07202749 -0.08091575 0.15571283 0.10474097 -0.1709417 0.018027058 0.019175753 -0.15169586
0.13517812 0.11587143 -0.030967744 -0.081852324 -0.0038449408 0.07491793 0.022230893 0.10606826
0.12258003 0.02362787 0.11417607 0.20449856 -0.05891697 -0.037189495 0.052213453 0.0352587
0.14407952 -0.1994133 0.10892745 0.02596729 0.17313479 -0.07275411 0.17209773 -0.062410153
0.05177002 0.06502144 0.2085597 -0.008002665 -0.18636551 -0.047130093 0.19533135 0.13893159
-0.097772285 0.00925993 0.1986275 -0.13968903 -0.14571613 0.20223388 0.20552525 0.14241429
0.04489877 0.20118846 0.06964675 -0.14459324 -0.14841275 -0.003995384 0.21706258 0.11689605
-0.12433983 0.03200294 -0.10878779 0.10635471 -0.2150029 0.21808872 0.10125618 0.05649604
0.1567426 0.040502768 0.05315704 -0.19563857 0.07622807 0.13493778 -0.047556043 0.13780509
-0.20797825 -0.17193021 -0.024237799 -0.15311134 0.18818489 -0.019291611 0.013257577 -0.109156705
-0.21926063 0.11102772 0.18363893 -0.10164542 -0.07756824 0.010248112 0.11086985 0.0109616015
0.21085852 0.11245825 -0.17710309 -0.07338821 -0.1711584 0.20566987 0.18294889 0.18771552
-0.079674534 0.02890445 0.11064224 0.13871568 -0.06508584 0.17295203 -0.06298782 0.18414842
0.14354119 0.0125161065 -0.12499257 -0.15430327 0.18967049 -0.031667553 0.18375526 0.070948154

functional_1/dense_7_1/BiasAdd/ReadVariableOp:0 f4 [64]
00000000: f868 c2ba faa5 11bb 9512 f6b9 3dad f3bb
00000010: 3067 f03b 5a20 0abc 0fdd 69bc b4c7 27bc
00000020: b13a b939 bc4b 84bb 611a 123c a762 d63b
00000030: d6af 73bc d630 bb3b f954 1abb 31ea 0fbb
00000040: 92f4 533b 93dc 6dbc ba75 53bc ee25 b63b
00000050: 3339 493b 27f1 0cbc 377a 02bc 72eb 94bb
00000060: 16fa 3fbc 6329 55bb 94ae d5bb 4f38 25bb
00000070: 46d1 b33a 3305 64bc 46da bdbb 1bac f83a
00000080: bc23 eebb ff75 e43b 9d68 cd3a cd22 10bc
00000090: c302 92bb 6058 60b7 4eb3 9cbc 01fc d0bb
000000a0: dd74 193b f2fd 7fbc efd7 c33b ad6e aebc
000000b0: 1bca b4bc e8c0 823c 8c19 11bc f684 25bb
000000c0: 237c 32bc d402 f73a 3c73 d03b e6c6 d5bb
000000d0: 0000 0000 efdb f0bb 1ef4 f9bb d21a 8bbc
000000e0: 036d 72bb e3af c33b cf45 8cbc bae2 723c
000000f0: 4c34 5fbb 78b4 f83a 7256 303c 9a6c 6fba
-0.0014832309 -0.0022224174 -0.0004693462 -0.007436423 0.0073365197 -0.008430565 -0.014273896 -0.010240484
0.00035329678 -0.0040373486 0.008917422 0.006542522 -0.0148734655 0.005712609 -0.0023549183 -0.0021959657
0.003234182 -0.014517921 -0.012906486 0.005558721 0.003070426 -0.008602417 -0.007963709 -0.004544669
-0.01171734 -0.003252589 -0.0065210555 -0.0025210564 0.0013718985 -0.013917255 -0.0057938425 0.001897219
-0.0072674435 0.006972074 0.0015671436 -0.00879736 -0.0044558956 -1.3372017e-05 -0.019128468 -0.0063776975
0.0023415603 -0.01562451 0.005976669 -0.021293009 -0.022069028 0.015961125 -0.0088561885 -0.0025256253
-0.010893854 0.0018845447 0.0063613933 -0.0065239547 0.0 -0.007350437 -0.007627978 -0.016980562
-0.0036991246 0.005971895 -0.017123131 0.014824564 -0.003405827 0.0018974682 0.010762798 -0.00091333094

functional_1/dense_6_1/Cast/ReadVariableOp:0 f4 [16, 1]
00000000: accc 313f f240 fabd 2a8b 563f 04be c8be
00000010: d83b aa3e 9020 603f b3d7 4b3f 8473 133f
00000020: 2e18 65be a26a 98bd ca96 aa3e 40f7 1d3f
00000030: 07a5 d03e 5039 a9be b75b 1c3e 3024 d4be
0.6945293 -0.122194186 0.838061 -0.3920747 0.33248782 0.87549686 0.79626006 0.5759814
-0.22372505 -0.074422136 0.33318168 0.617054 0.40750906 -0.33051538 0.15269361 -0.4143386

functional_1/dense_5_1/Cast/ReadVariableOp:0 f4 [32, 16]
00000000: e524 9d3e 29b9 5cbe 144e 12bd 7a42 9f3d
00000010: f2f5 d53e c6da c7bd 7f38 db3e 1c6e d23e
00000020: 0fa3 2fbd 6d15 533e 2020 6bbd 54c9 d83e
00000030: d3b6 b2be 7da6 c9be 6a4d 983d 8f13 4bbe
00000040: 8662 c83e e767 3cbd 5291 d33e cc07 223d
00000050: 3e40 babb cc70 973d f736 adbe 6efd aa3e
00000060: 2293 d03c 243b d63e bc0f f23d 24e1 d33e
00000070: caa3 7c3e 7e71 1b3e 06e0 67be 7ef0 47be
00000080: 2fe5 893e 631f b23e f575 823e 4862 1bbd
00000090: 4454 d5bd 8f2c c7be de22 2fbe 8037 53bd
000000a0: ccf9 d6bd 0472 16be c725 cc3e 8097 f23b
000000b0: 0404 b73d 62d5 1b3e c7ee 813e 8d8b d73e
000000c0: 4e88 c03e 514f 2fbe e492 c33d b60d 3ebe
000000d0: 6b90 4abe 9226 a6bd 7148 723e c586 9cbd
000000e0: 695c b63e 3250 863e 7e16 7a3e b012 02be
000000f0: 20eb a63e cfa9 dc3e d5d1 8cbe 96a1 aa3e
00000100: a01a 9e3e 5600 b4be ea19 0cbd 3fe8 cbbe
00000110: ca90 c4bd 2225 ab3e a11e acbd ed72 c43e
00000120: 45e9 38bb 0d47 1b3e 8704 c1be 9b1b 70bd
00000130: 3bea d73e 60b1 78bc b182 a73e 4a46 79be
00000140: f3fd 21be c9e4 cb3d cdb3 563e 8f04 a9bd
00000150: 4606 aa3e 2daa 4d3c 2612 72be b871 463e
00000160: 8706 513d 0f71 983e 766d 383e a008 a8be
00000170: 12c3 233e 7091 c73c b258 5ebe 189f c73e
00000180: 5555 febd 4b6a 99bd 6d54 5fbc d30f 833d
00000190: 66a8 c83e 84c1 083e ccce b5be 6226 5a3d
000001a0: 980a 16bd d5b5 303d 6e9c 77be 53b9 b5be
000001b0: a743 cebe be9a a2be 630e 94be b2b4 5c3e
000001c0: b2eb bd3e 9548 d83e 0560 acbe 9d2a 9a3e
000001d0: 75e3 24be 7a69 29be 5b5e 80be 73e8 bf3e
000001e0: 1131 d3be a549 bdbe 07b4 a6be 9614 d73e
000001f0: 281f 6c3e 6c1f ae3d 89fc a7be 7e21 dbbe
00000200: 50aa dd3e 0bf9 cebe 639e c6be 3c0b 71be
00000210: f93f 7ebc 1f56 ce3e 725d 363e 6072 23be
00000220: e1b5 a2be 60f0 6a3c 36c7 2abe 36c1 9b3e
00000230: 9d92 e33d 986b 3bbe eed5 b6be a947 283e
00000240: 1fbe 583e caec b53e bfee bcbd ab15 f73d
00000250: d27f 9dbe 64d3 9d3e 4e71 d8be d33c e93d
00000260: 9396 583d 75af 483d d47c c7be 3e65 55be
00000270: 51da b1be b269 213e 05b3 e33c 9a38 6bbe
00000280: 9815 22be 9ad1 c93e 64a8 ab3e 0041 a9be
00000290: 4f52 f4bc 4bf1 643e 32fe 9a3e bd7c dc3e
000002a0: 806c 7d3e 3f8d 3b3e b70c 9dbe b2fb 29be
000002b0: 2fe4 013f 763b 373e 163e 09be a03d 083e
000002c0: 7daf dfbd 427c d43e 9f69 33be d395 96be
000002d0: c1ed 88be aedf 013e 43be db3e 45b3 c9be
000002e0: eeb9 193e c9f1 583e 3c07 c3bd 6813 383e
000002f0: c075 70bd 7ed3 3ebe 87e8 0b3e 0974 453e
00000300: 7c16 973e 0ef2 043e 5cdf b73e f450 a23e
00000310: 5db2 05be f87b 8b3e 25b9 cd3e cc3f be3e
00000320: cbec aa3e 488c 2e3e ca2b 6e3e 7f96 013e
00000330: 02fd 70be 65b5 8abe 1b2d 9dbe 6d81 5bbe
00000340: bddb 6dbd 8814 c33e ecfb 9ebe 142c c73e
00000350: 1ab5 cb3e 53f6 aabe 6505 9e3d d44a 03bd
00000360: 7123 833e 8188 383d e890 93be d4fd a3be
00000370: a8f5 133e 57cc 73be 0cc5 563d 1f30 cfbe
00000380: 6c9e 9bbe cf28 3abe fd56 6bbe eaab 81be
00000390: 016c e23c 940f 87be 4415 a0be 5ad4 b7be
000003a0: 504a 203e 7a41 b43e 4203 363e ec68 943e
000003b0: e936 433e ca03 81be 590d 5b3e de8a 873e
000003c0: 6c9b e83d 3b17 d4be 542b f63d 68ef 82bd
000003d0: 7afc 023e 2d09 a13e 0ed2 2e3e 3f14 c8be
000003e0: 26ee 6e3e 97fd 863e 4030 fcbd 3681 383e
000003f0: 786f aebd ed41 c83e 1794 d4be 42aa 82be
0.3069221 -0.21555008 -0.035718992 0.07776351 0.41789204 -0.097585246 0.4281654 0.41099632
-0.042880114 0.20613642 -0.057403684 0.423411 -0.3490511 -0.39384833 0.074366406 -0.1983168
0.39137667 -0.045997526 0.41321808 0.039558217 -0.005683928 0.07394561 -0.33830997 0.33396477
0.025460783 0.41841996 0.11819407 0.41382706 0.24671856 0.15180013 -0.22644052 -0.19525334
0.26932666 0.3478957 0.2548062 -0.037935525 -0.10416463 -0.38901183 -0.17103145 -0.0515666
-0.10496864 -0.14691931 0.39872572 0.007403314 0.08936313 0.15218118 0.25377485 0.42098656
0.37603992 -0.171201 0.095495015 -0.18559918 -0.19781654 -0.081128255 0.23660447 -0.07642893
0.35617378 0.2623306 0.24422643 -0.12702441 0.3260126 0.43098304 -0.2750384 0.33326405
0.30879688 -0.35156506 -0.0342044 -0.39825627 -0.09597929 0.33426768 -0.084042795 0.3836893
-0.0028215211 0.15163822 -0.37698767 -0.058620077 0.4217089 -0.015179008 0.32716897 -0.2434322
-0.1581953 0.09955747 0.20967026 -0.082528226 0.3320791 0.01255278 -0.23639736 0.19379318
0.051031616 0.29773757 0.18010506 -0.3281908 0.15992382 0.024361342 -0.21713522 0.38988566
-0.124186195 -0.07490977 -0.0136309685 0.063995026 0.39190978 0.1335507 -0.35509336 0.05325926
-0.036631197 0.04314216 -0.24180767 -0.35492954 -0.4028599 -0.31758684 -0.28917226 0.21553305
0.37093884 0.42242876 -0.33667007 0.30110636 -0.16102393 -0.16544142 -0.25071988 0.37482032
-0.41248372 -0.3697025 -0.32559225 0.42007893 0.2305876 0.08502087 -0.32809857 -0.4279899
0.43294 -0.4042438 -0.38792714 -0.23539442 -0.015518182 0.4030008 0.17809084 -0.159616
-0.31779388 0.014339536 -0.16677555 0.30420846 0.11111949 -0.18302763 -0.3571009 0.16433586
0.21166275 0.35532218 -0.09225225 0.1206468 -0.30761582 0.3082534 -0.42273945 0.113885544
0.052877974 0.048995454 -0.38962424 -0.20839402 -0.34736875 0.15762976 0.027795324 -0.2297081
-0.1582855 0.39417726 0.3352691 -0.33057404 -0.029824404 0.22357671 0.3027206 0.43063918
0.2474842 0.183156 -0.30673763 -0.1659992 0.50738806 0.17893776 -0.1340259 0.13304758
-0.109221436 0.4150105 -0.1752076 -0.29411182 -0.26743892 0.12682983 0.42918596 -0.39394584
0.15012333 0.21185984 -0.09522864 0.17976153 -0.058706045 -0.18635365 0.13662921 0.19282545
0.29509342 0.12982962 0.35912597 0.31702387 -0.13056321 0.27243018 0.40180317 0.37158048
0.33383784 0.170457 0.23258892 0.12655066 -0.23534015 -0.27091518 -0.30698475 -0.21436091
-0.058070887 0.38101602 -0.31051576 0.38900816 0.39786607 -0.33391055 0.07715873 -0.032053784
0.25612977 0.045052055 -0.28821492 -0.32029593 0.14449179 -0.23808418 0.052434012 -0.404664
-0.30394304 -0.1817963 -0.22982402 -0.25326473 0.02763939 -0.26379073 -0.31266224 -0.359042
0.15653348 0.35206205 0.1777468 0.289863 0.19063915 -0.25198203 0.2139181 0.26473135
0.11357769 -0.41423973 0.12019983 -0.06393319 0.12791625 0.31452313 0.17072317 -0.39077947
0.23333034 0.2636535 -0.123138905 0.1801804 -0.08517355 0.39112797 -0.41519234 -0.2552052

functional_1/dense_5_1/BiasAdd/ReadVariableOp:0 f4 [16]
00000000: c1cb c13b 92b9 c4bb 669f db3c 113e 1cbc
00000010: 2e8f 713c d395 113d 1823 413c ddda 4e3c
00000020: 2f95 1bbc 7e1c bfbc 0000 0000 d364 1d3d
00000030: c27b 8c3d 0000 0000 f5dc c33b 2edd febb
0.005914182 -0.006003567 0.026809406 -0.009536282 0.014743609 0.035543274 0.011788152 0.012625423
-0.009496017 -0.023329016 0.0 0.03842623 0.068595424 0.0 0.005977268 -0.0077778315

functional_1/dense_4_1/Cast/ReadVariableOp:0 f4 [64, 32]
00000000: 1374 9e3e 6fad 45be eefc 4b3e 4efb 8dbe
00000010: 8aa5 fc3d 3b97 89be 1760 1abe e6a7 a3be
00000020: 2867 483e 9799 8dbe ca1c 1c3e c75d 023e
00000030: 7e40 bdbd 026f fd3d d079 8fbd ea0c b6bd
00000040: 7a29 923d a7e8 71be ebb6 5ebd 5b38 5b3e
00000050: 64bd 83bd 1497 ab3d e7c7 e53c bd5e 79be
00000060: 84e0 dabd 709d fabc 535b 16bd 6d97 d93c
00000070: 903e 833c 19ac 8d3e 5721 763c 4f2f 5bbd
00000080: b2af 2f3c 1e10 183d 41ce 873e 109e 49bd
00000090: 1d1f f43d 1ca7 bf3d a054 82be c222 773e
000000a0: e96e 57be 9354 febc 02c3 1dbe fe45 4f3e
000000b0: d1e4 6bbe 1ae7 8a3e a6f3 9dbb 4403 7fbe
000000c0: c9ee fdbd d81f 313e 7471 4cbd 179e 973e
000000d0: 4cf5 8d3d a20f dd3d 21a8 8fbe a837 f7bd
000000e0: 8bfd 93bd 6f58 5abe cfbb 61be 0543 9c3d
000000f0: f275 07be af87 823d 6d52 58be 9c39 c3bd
00000100: f9cb 2e3e ad8d 133e 8dab 15be deb2 423d
00000110: 30d7 8d3e cd96 98bc 0dd2 26be 25f5 8bbe
00000120: e917 c23d 9fd0 cf3d ba0e 1bbc a77e 9e3d
00000130: 7d25 4ebe 717a 94be 853b 49be 9fba 97be
00000140: 924f e7bc b4d0 2f3e e701 7ebe 00b1 8abe
00000150: cf7f 6c3d 8ce7 cd3c 4755 1f3d e6c8 603e
00000160: 0df4 13be a342 833e 1c50 543e c92e 74be
00000170: f8b8 04be aa97 ca3d 1ffd 36be ceb7 1e3c
00000180: 6a8a df3d 76f5 67bd b246 54be cdfc 3ebe
00000190: 29ba 623d 4e13 a2bd f81d 12be 9fca 1f3e
000001a0: 507c ecbd 5cf7 42be 4277 fe3d 744e d4bd
000001b0: 096a 4bbe 723b e9bd b2c7 713d 8c73 293e
000001c0: f672 24be 7099 97be c68e 24be 1ac9 c53d
000001d0: 3777 133d e738 a03d ff69 fbbd 47c7 85bd
000001e0: 7668 aa3d 4c28 fdbd da8a dbbd f32d 123e
000001f0: 3546 7dbe 686e 7cbe 83c6 0fbe fe67 c83d
00000200: 93ce 95bd c86a 8b3d 7ab4 91be 8f61 963e
00000210: eec7 afbd 8781 b53c dd1f 97be f428 96bd
00000220: 296d 73bd 7ef3 e7bd 13d2 3c3d 2f27 4fbe
00000230: 57ca 193e 7920 2dbe 68e9 1ebc b7da 9b3e
00000240: cdb0 5abe 1eb6 9bbd 5c29 cbbd 63cc 0b3e
00000250: ee0d e83d 1cdd 893e 20a8 9bbd 5007 7fbe
00000260: 1b5f 6e3e 8f03 443e 4e62 2abe cb95 23be
00000270: 6fdb 06be f1f2 debd 81b3 5a3e 4e66 84be
00000280: a4bd 04be 52bc 983c 5b21 8c3e 8e8e cb3d
00000290: 902d 98bd 91bb 0d3e c046 8abb 67e7 80be
000002a0: ca1e e63c 389b 193e 3df9 7dbe d751 1d3e
000002b0: 2781 823d 5ef6 10be 2403 f93d 8852 ef3d
000002c0: d6c7 bebd debf 5a3e 6f66 46be f1c6 18be
000002d0: 9a74 59be dd6a f53c b839 0dbc 1735 703e
000002e0: 6539 e6bc e531 dbbd 35f7 dcbc 3a0e aabd
000002f0: 0ae6 743e c624 08be 8ab4 8dbe 0037 58bc
00000300: b05e 143d 7852 a9bc 94a1 203e b3d9 b9bc
00000310: 82bb efbb bb97 91be a338 93be 0c76 57be
00000320: 6ce4 5e3e b392 4f3e 3fa1 223d 5b54 4dbd
00000330: d35d 243e 1c8e 94be 9dbe 433e 34fd f13d
00000340: 4d16 99be e0d6 2fbc 59c8 6bbe 40f1 c73d
00000350: 9668 65be 7d4e 07be f2ce 2ebe d17c a23c
00000360: 4b24 a5bd bed1 8a3e f811 9bbe c046 2cbe
00000370: 3e08 51be f94d 783d 6b92 883e d45b 19be
00000380: de56 4f3e 8a67 3bbe 3eb2 723e c15e 953d
00000390: 28b2 243d e905 3e3e 95e2 663e 2543 c2bd
000003a0: 4334 14be c9af 79bd 3838 8abc 1bed adbd
000003b0: 38fa eabd 2271 1b3e a632 f7bd 4dc8 89be
000003c0: 2be4 94bd d059 d03c 9680 7ebe 6f23 2fbd
000003d0: d17e 3e3e 651d abbc baec bcbd 1973 71bd
000003e0: a9a3 393e 7293 6bbe 03bd a63d 882c 793e
000003f0: 8e92 593e 6c4f 023e c422 e83d fa53 c1bd
0.30947933 -0.19304441 0.19920704 -0.27730793 0.123362616 -0.26873192 -0.15075718 -0.31964034
0.19570601 -0.27656242 0.15245357 0.12731086 -0.092408165 0.12374689 -0.07005656 -0.08889182
0.07136817 -0.23623906 -0.054373663 0.21408217 -0.06432608 0.08378425 0.028049422 -0.24352546
-0.10687354 -0.03059265 -0.036708187 0.026561463 0.016021043 0.27670363 0.015022597 -0.053511914
0.010723041 0.037124746 0.26524547 -0.049223006 0.11919997 0.093580455 -0.2545519 0.24134353
-0.21038403 -0.031046188 -0.15406421 0.20241544 -0.23036505 0.27129441 -0.004820305 -0.2490359
-0.1239906 0.17297304 -0.049912885 0.296128 0.06931552 0.10793997 -0.2805796 -0.120711625
-0.07226094 -0.21322797 -0.220443 0.076299705 -0.13228586 0.06373536 -0.21125193 -0.095324725
0.17069997 0.14409514 -0.14616223 0.047533862 0.27703238 -0.018626595 -0.16291066 -0.27335468
0.09477217 0.10147213 -0.00946396 0.07739001 -0.20131488 -0.28999665 -0.19651611 -0.29634568
-0.028236184 0.17169458 -0.24805413 -0.27088165 0.057739075 0.025134824 0.038899686 0.21951637
-0.14448567 0.25636777 0.20733684 -0.23845972 -0.12961185 0.09892209 -0.17869996 0.009687377
0.10915072 -0.056630574 -0.20730093 -0.18651123 0.055353317 -0.07913838 -0.14269245 0.15604638
-0.11547148 -0.19039673 0.124250904 -0.10366526 -0.19864668 -0.113882914 0.059028335 0.16547984
-0.16059479 -0.2960925 -0.16070089 0.09657498 0.036002364 0.07823353 -0.122760765 -0.0653215
0.083207056 -0.12361202 -0.10719843 0.1427534 -0.24733813 -0.24651492 -0.1404057 0.0978546
-0.073147915 0.06807476 -0.28458005 0.29371306 -0.085830554 0.02215649 -0.29516497 -0.0733203
-0.059430275 -0.11325739 0.04609878 -0.20229791 0.15018593 -0.16906919 -0.009699203 0.30440304
-0.21356507 -0.076030955 -0.09919998 0.13652186 0.11330782 0.26926506 -0.07600427 -0.24905133
0.23278467 0.19141982 -0.16639063 -0.1597511 -0.13169645 -0.10886181 0.21357538 -0.25859302
-0.12962967 0.018644486 0.27369198 0.099392995 -0.07430565 0.13841082 -0.00421986 -0.25176546
0.028090853 0.15000618 -0.24802108 0.1536325 0.0637229 -0.14156482 0.12158802 0.116856635
-0.093154594 0.21362254 -0.19375013 -0.1491964 -0.21235886 0.029958183 -0.008619718 0.23457752
-0.02810354 -0.10702876 -0.026973346 -0.08303495 0.23915878 -0.13295278 -0.27676803 -0.013196707
0.036223114 -0.020669207 0.15686637 -0.022686815 -0.007316054 -0.28436074 -0.28754148 -0.21041125
0.21766824 0.20270805 0.039704558 -0.050129276 0.16051416 -0.2901467 0.19115682 0.11815873
-0.29899827 -0.010732383 -0.23025645 0.09762812 -0.22403178 -0.13213535 -0.17071131 0.019834908
-0.08063563 0.27113146 -0.30287147 -0.16823864 -0.204133 0.060621236 0.26674208 -0.14976436
0.20247981 -0.18301216 0.23700806 0.072934635 0.040208966 0.18556942 0.22547372 -0.09485463
-0.14473061 -0.060958657 -0.01687251 -0.0849249 -0.11473507 0.15179875 -0.12070207 -0.2691063
-0.07270082 0.025433451 -0.24853739 -0.0427584 0.18603064 -0.02088804 -0.092248395 -0.058947656
0.18128838 -0.23005465 0.0814152 0.24333394 0.21247312 0.1272561 0.11334756 -0.094398454

functional_1/dense_4_1/BiasAdd/ReadVariableOp:0 f4 [32]
00000000: bd31 c33b 6ce0 1b39 0000 0000 f64e c1bb
00000010: 0a3c c23b 821d b5bb 8801 c4bb 96ea e3bb
00000020: 63e5 df3b f0fa 2abc a478 de3c a487 37bc
00000030: d631 2f3c c1e6 a6bb 18f6 bcbb 0000 0000
00000040: 3c05 05bc 0000 0000 cc46 103c fbe2 fb3c
00000050: 2ca1 8f3b 7e5f 5cbc 745e 503c 24d9 abbb
00000060: cc22 023d c5dc ecba 4319 b1bb 8cb3 953c
00000070: 0000 0000 78f1 d0bc e1be 1c3d 719e c43b
0.005956857 0.00014865556 0.0 -0.0058993055 0.0059275674 -0.0055271992 -0.005981628 -0.006955455
0.006832765 -0.010435805 0.027157135 -0.011201773 0.010693034 -0.005093426 -0.0057666413 0.0
-0.008118924 0.0 0.008805942 0.030747881 0.004383227 -0.0134505015 0.012717832 -0.005244391
0.031771466 -0.0018071166 -0.0054046228 0.018274091 0.0 -0.025505766 0.038267974 0.006000333

functional_1/dense_3_1/Cast/ReadVariableOp:0 f4 [128, 64]
00000000: a13f 113e 0890 0c3d 79cd 6eb9 d45f 933d
00000010: 1363 1f3e ca82 a83d 6d7f 2a3e 3d45 243e
00000020: 7c6e 0cbe 9635 973d 656e f9bd 76c8 d33d
00000030: e1bd 18bd 2ab9 95bd d784 80bc 15c0 2cbe
00000040: 301e efbd 86e5 bfbb fd9a 2f3e dbc8 52bd
00000050: 7133 823c 00fa 10bd 0543 473e d55b 133e
00000060: 822c 32be 9f8d 2dbd d7f3 3c3e 0f73 4ebe
00000070: 3e7c 5e3e e095 9e3b 593d ed3d d091 98bc
00000080: af2e 22be 7bcd 10be f7c9 2c3e 5db0 4d3e
00000090: 709d 1bbe b577 62bd 8b41 4f3e 7d01 523d
000000a0: 18d7 2f3d 4386 d5bd 8492 a73d 26e5 d73d
000000b0: eda6 ac3c 0dc0 373e 94a4 48be 06a1 3ebe
000000c0: d070 b93d fce7 ccbd 9bed cebd 12c8 18be
000000d0: 0142 6d3e 168f 12bd 6463 a03c 0a35 dc3c
000000e0: d257 e33c c5e1 133e 2326 4e3e 8ace dc3d
000000f0: fb55 3d3e ba20 f23d f6b9 723d 0103 22be
00000100: 4db9 34bd 2837 873d d413 74bd ef6c 293e
00000110: 25d1 8abd e3cd 8b3c 525d 28be dd54 7a3d
00000120: df93 55be 72c5 233e 8b73 4dbe e4f9 383e
00000130: 7d36 943d 1d5d 413d bc3a 4ebe 74ae 233e
00000140: bbf1 a43d a22a 8ebd 0423 0ebe 66c7 3a3e
00000150: 6353 51be 7822 123e 7cf3 5ebd f01a c4bc
00000160: 10d1 3abe 1231 cc3a 5691 22bd 1c57 393e
00000170: d307 363c e5fe 4bbd d120 1e3d b145 473e
00000180: f889 0eba 6124 543d d6ce 06be d29a 133e
00000190: 1741 99bd ada8 b3bc 9afc 383d b38e 5fbe
000001a0: 4073 e7bd c367 0abe 0d27 0c3e aa51 cd3c
000001b0: 89fc 243e 6345 3f3e 673a 8cbd 0c54 51be
000001c0: a805 4abe e653 c5bd 1f65 f8bd 2182 443e
000001d0: c5f4 1abe 3448 cf3d 395d 4a3e aa6e 2e3e
000001e0: 207e ff3d 491d 0ebe 7712 0ebd 43b9 4ebd
000001f0: 9694 9e3d 4414 b0bd a260 9bbd bb1a 42be
00000200: f9e1 483e 52a5 d73d 61de 4a3e 660f bebd
00000210: a941 2fbd adb6 92bd 32ae 43be 89ca bc3d
00000220: 0dbe b5bd 476c eb3d 59c7 96bd e8ba d4bd
00000230: 0e0d 5abd 0360 4d3e f627 a8bd 9076 a43d
00000240: 7150 2c3e 90e0 afbc 84c3 3fbd 670d d6bd
00000250: 92f7 8abd 1e8c 6ebc c1e9 aa3d 001a 9cba
00000260: d85c 0dbd 454a 39be 40d6 df3b 0033 0abe
00000270: 3813 d4bd e996 ef3d 6da0 683d c0f4 abbd
00000280: d3e9 2cbe d694 d4bd 1e43 58be aaa8 513d
00000290: 5395 bf3d 7d1a 093e c939 483d 94f4 04be
000002a0: da38 31bd c2e1 56be 9c4d c93d 1d4c 3bbe
000002b0: 6620 01be 8f0f dfbd 1823 8ebd dde5 e63d
000002c0: c312 523b 4fc4 533e 9b51 32be c71c 17be
000002d0: 7537 453e 1692 5dbe 17ae c8bd c92d 123e
000002e0: 2e50 49be 1919 d23d 6dd1 a0bc a17a 0fbe
000002f0: b958 4dbd 612a 293e 8063 04bb 4be8 95bc
00000300: 4ccf c93b 05b2 34be f7c9 5fbe ad18 983d
00000310: df2e 2cbc b449 303d cc8a c13d e741 873a
00000320: 7fa1 42be 41b1 283e 7f74 14be 38a0 263e
00000330: c080 b9bd 7d9b 603e 9eb7 4dbe 32d0 393e
00000340: 379d febd 1055 483e 7975 50be 11e1 82bc
00000350: 5af6 54be 93ac fcbd bb90 b83d d29d 16be
00000360: ebc0 38be e5d8 f3bd 1122 53bb 040a 82bd
00000370: b3e8 68bb 49fa 54be 62f7 b3bd d4a8 c6bd
00000380: c7a9 5f3e f7d9 dd3d 8fa2 f4bc d5a6 193e
00000390: ce70 cabd 646a 15be 1161 4e3e fdea 10be
000003a0: 194b a7bd 23b1 1c3e 5b49 cabd b8da 00be
000003b0: dbe3 223e f1cd 0dbe a519 e9bd 964c 3e3c
000003c0: e4b2 c63d 66d3 183e e51b 30be 58bd d4bd
000003d0: 85f5 443e f121 7e3d f72a 4c3e 512b 0e3e
000003e0: 5caa 893d 05ed 9dbd 92e7 55bd be17 9bbc
000003f0: 8737 ab3d 5441 c43c 532c 453e bfc3 01be
0.14184429 0.034317046 -0.00022773993 0.07196012 0.15565138 0.08228071 0.16650172 0.16042037
-0.13714021 0.073832676 -0.12179259 0.10340969 -0.037290458 -0.07310708 -0.015688343 -0.16870148
-0.1167568 -0.0058562187 0.17148967 -0.051461082 0.01589367 -0.03539467 0.1945916 0.143905
-0.17399791 -0.04237139 0.18452393 -0.20161079 0.21727082 0.004839644 0.11583967 -0.018624216
-0.15838121 -0.14140885 0.16873918 0.20086809 -0.15196776 -0.055289943 0.20239846 0.05127095
0.04292974 -0.10425999 0.081822425 0.105417535 0.02107569 0.17944355 -0.19594032 -0.18616113
0.090547204 -0.10005185 -0.101039134 -0.14920071 0.2316971 -0.03578099 0.019578643 0.02688076
0.027751837 0.14441593 0.20131736 0.10781582 0.1848983 0.11822648 0.059259377 -0.15821458
-0.04412203 0.06602317 -0.059589222 0.16545461 -0.067781724 0.017065948 -0.16441849 0.06111609
-0.2085719 0.15993288 -0.20063607 0.18064076 0.07236955 0.04720794 -0.20139593 0.15984517
0.08053919 -0.06941725 -0.13880545 0.18240127 -0.20441966 0.14270961 -0.054431424 -0.023938626
-0.18243814 0.0015578589 -0.039689384 0.18099636 0.011110264 -0.049803633 0.038605515 0.19460179
-0.0005437429 0.051792506 -0.13164839 0.14414528 -0.07483118 -0.021931017 0.045162775 -0.21831779
-0.11301279 -0.13516144 0.13686772 0.025063355 0.1611196 0.18678813 -0.06847077 -0.20442218
-0.1972872 -0.09635143 -0.12128662 0.19190265 -0.15132435 0.101211935 0.19762124 0.17034402
0.12475228 -0.13878359 -0.03468558 -0.050469648 0.07743184 -0.08597615 -0.075867906 -0.1895551
0.19617452 0.10529579 0.19811393 -0.09280281 -0.042787228 -0.07163749 -0.19109419 0.09218318
-0.0887414 0.11495262 -0.07362241 -0.10387212 -0.053235106 0.20056157 -0.08210747 0.080304265
0.16827561 -0.021469384 -0.046817318 -0.10451775 -0.067855015 -0.014559774 0.08345366 -0.0011909604
-0.03451237 -0.18094738 0.0068309605 -0.13496017 -0.10355228 0.11698706 0.05679362 -0.08396292
-0.16886072 -0.10379951 -0.21119353 0.05118624 0.09354653 0.1338901 0.048883233 -0.12983924
-0.04326711 -0.20984557 0.09829256 -0.18290754 -0.12610015 -0.108916394 -0.06940287 0.11274312
0.003205464 0.20680355 -0.17413943 -0.14757071 0.19259436 -0.21637759 -0.0979883 0.14275278
-0.19659492 0.10258693 -0.019631112 -0.14011623 -0.05013344 0.16520073 -0.0020200908 -0.018299242
0.006158745 -0.17646034 -0.21854387 0.074265815 -0.010509222 0.04303904 0.094503015 0.0010319323
-0.19006918 0.16473867 -0.14497565 0.16272056 -0.0905776 0.21934314 -0.20089576 0.18145826
-0.1243233 0.19563699 -0.20357312 -0.01597646 -0.207971 -0.123376034 0.0901198 -0.14708641
-0.18042342 -0.11906604 -0.003221635 -0.063495666 -0.003553909 -0.20798601 -0.08787419 -0.0970017
0.21842109 0.10832589 -0.02986267 0.15005048 -0.09884797 -0.14591366 0.20154215 -0.14152141
-0.081686206 0.15301947 -0.09877273 -0.12583435 0.15907232 -0.13848092 -0.113818444 0.011614939
0.097020894 0.14924392 -0.17198141 -0.10387677 0.19234283 0.062044088 0.19938265 0.13883711
0.067219466 -0.077112235 -0.052222796 -0.01893222 0.083602004 0.023956932 0.1925519 -0.12672327

functional_1/dense_3_1/BiasAdd/ReadVariableOp:0 f4 [64]
00000000: 108e c53b 3a5d a7bc 1b79 a23b 0b76 e83a
00000010: 2d50 773b ec2d c6bb 68ba f43b b325 aabb
00000020: fd98 c1ba 7947 5fbb f8ba 84bb 8698 c1bb
00000030: ed15 073c b177 e13b 0d9b 56bc 8c36 4d3c
00000040: e6e7 33bc e05b 02bc 0000 0000 846c 8ebb
00000050: 6f80 e3bb f9cf bd3b b6ce a5bb 0000 0000
00000060: 512d ec3b 4a0a c839 a2b0 663b 4c91 c8bb
00000070: 614b 393c 930b a63b 0036 6dbb 36bb bf3a
00000080: ca77 c23b 31e8 bbbb 9628 c3bb b1c8 383c
00000090: 5604 1b3a 8b0d 2ebb 1c6c 593a be0c 7fba
000000a0: f9e8 74bb 3b2e 89bb 21db b6bb 81fd c0bb
000000b0: e801 3f3a 8cb0 d13b 3ef3 883b 486f 153c
000000c0: 2c83 f1ba 85f7 a7bb b7c4 d6bb fc05 313a
000000d0: 925e 493c b1b2 acbb a1ac 01bb 74ce bdbb
000000e0: 1687 a53b f305 c1bb bc92 a1bb b586 b03b
000000f0: f8a7 9739 8fbc 263a 41b0 923b e750 8ebc
0.006028898 -0.020430196 0.0049582846 0.0017735375 0.0037736997 -0.006047955 0.0074685104 -0.0051924824
-0.0014770326 -0.00340697 -0.0040506087 -0.005908075 0.008244974 0.0068807234 -0.01309849 0.012525212
-0.010980582 -0.007956475 0.0 -0.004346432 -0.0069428007 0.0057926145 -0.0050600423 0.0
0.0072075506 0.0003815464 0.0035200496 -0.0061208364 0.011309476 0.0050672977 -0.0036195517 0.0014627937
0.00593469 -0.0057344665 -0.005955766 0.011278317 0.0005913427 -0.0026558365 0.00082940026 -0.0009729377
-0.0037370308 -0.0041864193 -0.0055803214 -0.005889595 0.0007286356 0.00639922 0.0041793874 0.00912077
-0.0018425933 -0.005125942 -0.006554212 0.0006752906 0.012290614 -0.005270325 -0.0019786733 -0.0057924334
0.005051504 -0.005890602 -0.004930822 0.005387152 0.0002892611 0.0006360495 0.0044765775 -0.017372562

functional_1/dense_2_1/Cast/ReadVariableOp:0 f4 [256, 128]
00000000: 582d c83d 8e16 b4bc a9f3 e3bc 378a adbd
00000010: 22df 19bd 941d f83d 3c2e 00be f788 1cbd
00000020: 4657 f9bd 3911 f1bd 9d26 75bd 82a6 633d
00000030: cbe3 29bd e96b 213e 061d bb3c 35c1 96bd
00000040: 8175 93bb b57f 1b3d 93b6 50bd b53c f03b
00000050: c3c8 b6bc 49fb 023e b281 edbd bb61 b5bd
00000060: 7fb1 f5bd 66c8 b93d ac6e 8f3d 6602 e43b
00000070: 625d e13d 5d2d bdbd 0010 a93d 5e85 8e3d
00000080: 588c 0dbe d6ec ce3c 1024 153e 43f0 ca3d
00000090: 871c 713d 1482 143d 1794 7fbd aa91 abbd
000000a0: e01e cd3c d8c9 0b3e 5f2d dbbd 52f7 fbbd
000000b0: ef5b 833d 324e babc cf7f 303c b3ed 943d
000000c0: 0294 9e3d 6f7d f53d 63b3 1fbe 8c88 4cbd
000000d0: a84a 7abd 35e1 bc3c b91c 2cbd 9036 00be
000000e0: fcf2 833d 8cc1 10be 92b5 9c3d 6d26 0a3c
000000f0: 9760 043e f620 bdbc 3b02 2abc f029 a8bd
00000100: 2407 bbbd 56d3 d9bd e9df f9bd 2118 913c
00000110: a444 083e 4f1b 64ba 55d7 b93d f998 c8bd
00000120: 7ee3 6ebd 8831 21be 5014 93bd dd25 cd3d
00000130: 9409 7dbc 8014 dbbb f835 943d 3b16 f23d
00000140: a96f 963d 56f5 5d3d 4659 82bd 6bf8 00be
00000150: 48cc 9d3c 55c2 bf3d e3c4 83bc 7dff 12be
00000160: fc4f cdbd d6a1 173c 1994 c3bd 1625 e0bc
00000170: 380f eabc 1de6 e8bd 0ae8 96bc a0bc bcbd
00000180: 3d79 f6bd 7dda b93d 0e03 f33d 13dc 51bd
00000190: d81a db3d 7fee 19be 8000 0cbc a08c 62bd
000001a0: 0369 b93d 7e1f 43bc 782a fbbd e086 4dbc
000001b0: 86f8 51bd 9e2d 29bd 8b9f a6bd 9d79 043e
000001c0: aa0f 24bd b893 dabd e676 c6bc b4da 253e
000001d0: 5eca 503d cfa5 6d3d e0ba b5bd 0c02 75bd
000001e0: 9e0d 01be be40 1cbd 447d 633d 04db c83d
000001f0: 9891 2b3d f97a a2bc e82e c53d 3f93 bb3d
00000200: 6ec9 a8bd 9b4e 20be 2167 803d 1ac7 153e
00000210: e6d6 d93d fbc6 fe3d 8b41 0f3e bf71 043e
00000220: 1cd5 05bd cdf9 a9bd b1dc cf3d 626f 093d
00000230: 5ad4 8dbd 502b e23d b173 bc3c f606 e63c
00000240: 283d 3bbd 1cd6 c43d 2260 043d 7533 b13d
00000250: 553d b0bc d153 833d f18c 6c3d 2243 6ebd
00000260: d4cb c7bc 695f 9dbc 031a 4bbd 2426 a4bc
00000270: b4f3 febd 6c8d 113d c6cd bcbd 157a a23d
00000280: a5ff 13bd 4315 99bc 2dd6 7b3d bfe2 793d
00000290: be44 313b e4a6 333d 48e0 3c3d c941 c0bb
000002a0: 497d 053e a34d 09bd dab3 103c 84f5 b73d
000002b0: 5dde 0cbe 69a2 743d ed3a 77bd 71e9 133e
000002c0: 1779 fd3d b897 72bd 7429 853d 4c70 b23d
000002d0: ccdc c03d 7727 9dbd a7e6 0dbe 1f5b 463c
000002e0: ed39 af3d 8552 eb3d c9b3 9bbd 1f7d e93d
000002f0: 57d1 f43d 1958 f93d a6e7 c9bc c0c9 46bd
00000300: 6ee6 90bd 0ba9 9dbd d0e5 cd3d e969 f7bd
00000310: 22c9 7a3c 8fde 0abd e7a1 e0bd 6655 e73d
00000320: 60b4 713d 5270 b5bc 9c55 6cbd 9d12 c63d
00000330: 853b 13be 7c0b 453d 286d bb3a 4cd9 143e
00000340: 21f6 27bd 03b5 cdbd 8987 7abc c1f3 8cbd
00000350: 1612 0bbd aa11 18be 6756 133e bb93 20be
00000360: 3f7d 64bd 2587 57bd 8986 04bd 5e10 aa3a
00000370: eb34 25bd 3aa9 c83d 3526 18bc 372f dd3d
00000380: 9e0d b4bd ead8 d03d 83c7 c9bd 6070 1c3e
00000390: 535c 2cba a8aa f73d 5da3 96bb f572 3b3d
000003a0: 2e93 823c 80b8 0abe ddb0 bebd 0ab7 ff3d
000003b0: 6786 343d da75 80bd 4662 0b3e 85c5 b23d
000003c0: d833 b5bc ba9a b23d cf8a b23c 314d bcbc
000003d0: 6c9e 163e 3021 33bd 6245 9b3d 3680 753d
000003e0: 92b3 3139 9306 863d ca9f c83d 21d4 b33d
000003f0: 546a e4bd 23d3 10be 637c efbd 1345 0bbd
0.09774274 -0.021983411 -0.027826147 -0.08473628 -0.03756631 0.121150166 -0.12517637 -0.038216557
-0.12174849 -0.11770863 -0.059851278 0.055578716 -0.041477006 0.1576382 0.022840988 -0.0736107
-0.0045000915 0.037963588 -0.050955366 0.0073314556 -0.022312528 0.1279117 -0.11597003 -0.08856531
-0.11996745 0.09071426 0.07003531 0.0069582937 0.110041395 -0.09237168 0.08255005 0.069590315
-0.13823068 0.025259417 0.14564538 0.099091075 0.058865096 0.036256865 -0.06239709 -0.083773926
0.025039136 0.13651216 -0.10702013 -0.12303032 0.06414019 -0.022742365 0.010772659 0.072719
0.07743074 0.11986815 -0.15595774 -0.04993491 -0.061106354 0.023056606 -0.04201958 -0.12520814
0.0644283 -0.14136332 0.07651819 0.008432013 0.12927471 -0.023087006 -0.010376508 -0.08211124
-0.09132221 -0.10636012 -0.122009106 0.0177117 0.13307434 -0.0008701579 0.090742745 -0.09794802
-0.058322422 -0.15741551 -0.07181609 0.100169875 -0.015444178 -0.0066857934 0.07236856 0.118206464
0.07345516 0.05418905 -0.06364684 -0.12594764 0.019262448 0.09363238 -0.016085094 -0.14355274
-0.100250214 0.009254893 -0.09549732 -0.027361434 -0.02857171 -0.113720156 -0.018421192 -0.09215665
-0.12034843 0.090748765 0.11865817 -0.05123527 0.106984794 -0.15032385 -0.008545041 -0.05530989
0.090532325 -0.011909364 -0.1226396 -0.012544364 -0.0512624 -0.04130327 -0.08135899 0.12937017
-0.040054 -0.10672706 -0.024226617 0.1619671 0.050974242 0.058019456 -0.08873534 -0.059816405
-0.12602851 -0.03814768 0.055539384 0.09807399 0.041886896 -0.019834029 0.09628087 0.09158944
-0.08241545 -0.15654986 0.0626967 0.14626732 0.10636692 0.12440296 0.13989846 0.12934016
-0.03267394 -0.08299599 0.101495154 0.03355349 -0.069252685 0.110434175 0.023004385 0.028079491
-0.04571262 0.096111506 0.032318242 0.08652393 -0.02151362 0.06412471 0.0577516 -0.05816949
-0.024389185 -0.019210534 -0.049585354 -0.020037718 -0.124488264 0.03553526 -0.09218936 0.079334415
-0.036132473 -0.018686896 0.06148355 0.061007258 0.002704903 0.04386033 0.04611233 -0.005867217
0.13036074 -0.033521306 0.008831942 0.08982375 -0.137567 0.0597252 -0.06035893 0.1444452
0.12376612 -0.05922672 0.06502047 0.08712825 0.09417114 -0.07673543 -0.13857518 0.012106686
0.0855597 0.11490349 -0.07602651 0.11400818 0.11953991 0.121750064 -0.024646591 -0.048532248
-0.07075201 -0.07698258 0.10053599 -0.12080748 0.015306743 -0.033903655 -0.109683804 0.11295585
0.05900991 -0.022148285 -0.05769883 0.09671519 -0.14378174 0.048106655 0.0014299499 0.14536017
-0.04100621 -0.10044291 -0.015291103 -0.0688243 -0.033952795 -0.14850488 0.14388429 -0.15681355
-0.055783506 -0.05261912 -0.032354865 0.0012974849 -0.04033367 0.097979024 -0.009286453 0.10800021
-0.0879166 0.10197623 -0.09852507 0.15277243 -0.00065750367 0.12093097 -0.004597111 0.04576393
0.015939321 -0.13546944 -0.09311078 0.12486084 0.04407349 -0.062724784 0.13611707 0.0872908
-0.022119448 0.08720918 0.021794705 -0.022986026 0.1470887 -0.043732822 0.07581593 0.059936725
0.0001694693 0.06544223 0.09796102 0.08780695 -0.11153093 -0.14143042 -0.11693647 -0.03400142
