public/assets/mancala_agent_final.onnx (onnx, 781581 bytes, 19 tensors)

functional_1/dense_9_1/Cast/ReadVariableOp:0 f4 [32, 6]
000000 44 8b c8 be 91 94 1c be 75 1f 4e bd b9 f7 41 bd
       -0.3916875 -0.15291049 -0.05032297 -0.047355387
000010 12 b3 19 be 58 51 71 bd 5f 76 51 3c e0 62 d0 3e
       -0.15009716 -0.058915466 0.0127845695 0.40700436
000020 ec 73 5b 3d 40 ac b6 bb 8b b3 85 3e 7d 58 7e 3e
       0.05357735 -0.005574733 0.26113543 0.24838443
000030 16 01 91 bd 95 5d 54 3e cf d0 74 3e 37 b5 a7 3d
       -0.07080285 0.20738824 0.23907779 0.08188861
000040 52 00 ee 3d 46 eb dc be 01 af 87 be 16 08 15 be
       0.11621155 -0.4314825 -0.26500705 -0.14553866
000050 25 b7 18 bd 07 39 cd be db 5f 79 3e fc 46 ae be
       -0.037284035 -0.4008257 0.24352972 -0.34038532
000060 b1 cb b7 3e 4a db a9 3e f4 36 57 be 8a 3f 20 be
       0.35897592 0.33175117 -0.21017057 -0.15649238
000070 7c 1c 13 3e 5f 9e 3e bd 5e 65 17 be ba ae 4e be
       0.14366335 -0.046537753 -0.14784762 -0.2018384
000080 38 7f 54 bd 4f 25 62 bd 49 2d 66 be 73 51 09 3e
       -0.051879138 -0.05521136 -0.22478212 0.13409977
000090 52 eb 84 be 68 3e 57 be 4e 94 c8 3d 75 89 84 3c
       -0.25960785 -0.210199 0.09793912 0.016178826
0000a0 61 7d 8b 3e ba 34 93 be 06 fd a3 bd 5d fb a0 3e
       0.27244094 -0.28751165 -0.08007245 0.31441775
0000b0 35 2c 92 be be c6 5c be 00 fc f0 bd bd b7 1c bc
       -0.28549352 -0.21560189 -0.11766815 -0.009565291
0000c0 3c 0b da 3d fc 4f 83 3e 46 8e 7a 3e c2 b0 3e be
       0.10646674 0.2564696 0.24468336 -0.18622115
0000d0 ae e2 95 bd cb 00 b4 3e 46 29 8b 3e 9f bb 5b be
       -0.07318626 0.35156855 0.27179927 -0.2145829
0000e0 d0 88 bf 3e 31 13 7c 3d 3b 14 b8 be e4 50 e2 3d
       0.37409067 0.06154174 -0.35952935 0.11050585
0000f0 51 f8 bb be cd ee 00 3d 20 24 ae bc 3e 33 46 be
       -0.36712888 0.03147774 -0.02125746 -0.19355485
000100 18 5c 34 be 13 bd dc bd f3 2d f3 bd a1 5f 7a be
       -0.17613256 -0.107782505 -0.118739985 -0.24450542
000110 c2 d6 a8 be 14 ca 11 be 19 34 d0 3c f0 2f 36 be
       -0.32976347 -0.14237243 0.025415467 -0.17791724
000120 b0 b3 67 be 7b bb 7b 3c 09 fd f0 3d 5d 43 c4 be
       -0.22627139 0.015364523 0.117670126 -0.38332644
000130 4a a7 d8 3d 1b db a0 3e 6c 4b a0 3e 79 97 d8 be
       0.10578783 0.31417164 0.31307542 -0.42303064
000140 fc 01 6c bd 9a eb b4 3e 62 bc ba be 38 c7 b4 3e
       -0.05761908 0.35336 -0.3647185 0.35308242
000150 7b 32 92 3e ac 3a bc bd 38 cf 3a 3d 8f 21 9d be
       0.2855414 -0.09190878 0.045607775 -0.30689666
000160 d1 ac e1 be 9a fc 76 3e f0 9e 75 3d 96 2f 7e 3d
       -0.4407716 0.24119797 0.059966028 0.0620571
000170 5b a7 c2 bd f4 ef 68 3e c2 08 b6 be 88 1f 83 be
       -0.09504577 0.22747785 -0.35553557 -0.25609994
000180 1d 58 51 3e 9c 25 97 be a3 f9 be 3e c8 d2 22 3e
       0.20443769 -0.2952088 0.37299833 0.15900719
000190 71 96 1e 3d ec 4f 17 3e 83 73 30 3e 85 0f 93 be
       0.03871769 0.14776582 0.17231564 -0.28722778
0001a0 c8 f7 91 be 54 d5 99 3e 8f bf 2a be 69 68 8a be
       -0.28509355 0.3004557 -0.16674636 -0.27032784
0001b0 18 46 f0 3d f4 6f 97 3e 4a 51 6c be ce 74 50 3e
       0.11732119 0.295776 -0.23077884 0.20357057
0001c0 ba 05 82 be 4f cc 38 3e c5 45 c1 be 8e b2 8b bd
       -0.25394994 0.18046688 -0.37748542 -0.06821166
0001d0 6e b0 1d be 22 5f 4f 3e 7a dc 75 be 19 69 71 be
       -0.15399334 0.20251134 -0.24009886 -0.23575248
0001e0 f7 0c b6 bd 15 6e 7d bd 89 6b 0c 3e 2d ff cc 3d
       -0.088891916 -0.06187256 0.13712896 0.100096084
0001f0 e3 0f 1d bd b6 b8 08 be f5 ee 9a 3e 39 53 8f be
       -0.03834523 -0.13351712 0.30260435 -0.2799318
000200 1a 10 bf bd 08 0b 90 be 5d 7d f6 bd 5d 95 9d be
       -0.09329243 -0.28133416 -0.1203563 -0.30778018
000210 a9 b8 9e be 16 38 d3 bd 7b f5 f9 3d 2e ad 14 be
       -0.3100026 -0.10313432 0.12205025 -0.14519188
000220 29 3b cb bd 33 41 b0 be 65 97 3b be 17 78 82 3e
       -0.09923393 -0.34424743 -0.18319471 0.25482246
000230 e2 7d bd bd 1c f4 a9 3e 98 f3 97 3e ee 1f 8f 3e
       -0.09252526 0.33194053 0.29678035 0.27954048
000240 3c ad 59 bd de d1 e2 bd 9f 5a 58 3e e3 5b da bc
       -0.053143725 -0.11075185 0.21128319 -0.026655143
000250 47 9d 0b bc ae 5e 91 3e 50 71 46 3d 8c b5 58 3e
       -0.008521385 0.28392547 0.048447907 0.21163005
000260 9f 16 8f be da 8b 9a 3d a0 4c 56 3e 61 b4 ab bc
       -0.27946946 0.07546206 0.20927668 -0.020960035
000270 de 77 b9 be c8 11 a6 3e 8e 83 af be ad fe 78 3d
       -0.36224264 0.3243544 -0.34280056 0.060789753
000280 4c 55 a2 3e 45 01 bf be ac f0 30 be e2 a9 37 3e
       0.317057 -0.37305656 -0.17279309 0.17935899
000290 0b b3 0a 3e f3 41 43 3e 58 32 0f 3d 15 08 2a 3e
       0.13544862 0.19068126 0.03496012 0.16604646
0002a0 38 03 9b 3c 55 fc 99 3e ee 1a 9a be e5 c0 e0 3e
       0.018922433 0.30075327 -0.3009867 0.43897167
0002b0 d5 16 6f 3e d6 70 8a 3e 68 e0 a4 be cf 9c c0 be
       0.23348553 0.27039212 -0.32202458 -0.37619635
0002c0 68 a7 9c be aa 3f 6b be 2c 65 39 3d 40 27 18 3d
       -0.3059647 -0.22973505 0.0452625 0.037146807
0002d0 c3 f7 77 be 91 f5 3e 3e c9 b0 69 be 5d 64 b5 be
       -0.24215607 0.18648364 -0.22821344 -0.35428134
0002e0 d8 ba 99 be f9 82 0c 3e a1 1b ae be d5 02 a9 be
       -0.30025363 0.13721837 -0.34005454 -0.33009973
0002f0 07 33 97 3e 4d f9 af 3e 0e ef 1a 3e 3f a4 b8 3e
       0.29531118 0.3436989 0.15130255 0.3606281

functional_1/dense_9_1/BiasAdd/ReadVariableOp:0 f4 [6]
000000 89 06 a2 3b 6b b2 b3 3b 2f a2 02 bd 94 7b 06 3c
       0.0049446267 0.0054839156 -0.03189295 0.008208174
000010 42 bc b3 bc 6e d7 8f 3c
       -0.021940354 0.01755878

functional_1/dense_8_1/Cast/ReadVariableOp:0 f4 [64, 32]
000000 85 53 2e 3d 1c 7b bf bd c5 86 25 3e de be 40 3e
       0.04256012 -0.09349653 0.16164692 0.1882281
000010 36 fa 79 3e f5 41 25 bd 06 a5 1c 3d fd f3 0e 3d
       0.24411854 -0.040346105 0.038243316 0.034900654
000020 3c 67 93 be 52 38 7a be a3 ca 75 bd 63 a8 7d 3e
       -0.287897 -0.24435547 -0.060007703 0.24771266
000030 dd fc 47 be 85 62 90 3d 3c a6 35 bd ed 97 fe bc
       -0.19530053 0.07050041 -0.044347987 -0.031078303
000040 60 ae 26 3e 7d ec 87 3d a6 38 6b 3e 79 ff bb 3d
       0.16277456 0.066369034 0.22970828 0.09179587
000050 67 8e 53 3e 06 75 2f be 9b 80 34 be 9a 53 81 be
       0.20659791 -0.17134485 -0.17627184 -0.25259095
000060 ab 47 70 3c 98 29 3a bd 35 b1 b0 bc 56 5b 8d 3e
       0.0146655245 -0.045449823 -0.021568874 0.27608746
000070 68 93 8b be ad ee 29 3d e8 d6 70 be d8 3b bf 3d
       -0.272609 0.041487385 -0.2351948 0.09337586
000080 5b ef 5f be 15 93 56 be 33 6d 40 be 21 65 2c be
       -0.2186865 -0.20954545 -0.18791656 -0.16835453
000090 88 ec 8c 3e 42 b4 84 be e7 16 c9 3d 53 ec 75 be
       0.2752421 -0.25918776 0.098188214 -0.24015932
0000a0 a9 e0 85 bd aa f8 2f bc f4 1e c3 3d 70 0d 3a 3d
       -0.06536991 -0.0107404385 0.09527388 0.04542297
0000b0 83 b4 48 3e d0 22 95 be b5 1d 0e be b5 81 a2 be
       0.1960011 -0.29128122 -0.1387852 -0.31739584
0000c0 53 01 21 bb 7c 18 85 3e cd 2d af 3d af 87 81 be
       -0.002456744 0.25995243 0.08553658 -0.2529883
0000d0 27 f6 9b be 79 19 08 3d f4 69 33 3e fc 68 2d be
       -0.30461237 0.033227418 0.17520887 -0.1693458
0000e0 df b4 1c be 58 b8 5f 3e 7b 90 b7 3d ee a2 e1 bd
       -0.15303372 0.21847665 0.08963104 -0.110174045
0000f0 9f c1 51 3e 8c f3 c5 bd b2 bc 48 be be 29 6f be
       0.20484017 -0.096655935 -0.19603232 -0.23355767
000100 d5 80 46 be c2 87 86 bd f0 bd b4 3c 87 d9 c9 3d
       -0.19385083 -0.065688625 0.022063226 0.09855943
000110 d0 54 a5 3d 89 e7 6a be 38 00 85 be 81 d8 92 be
       0.08072817 -0.22939886 -0.2597673 -0.28680804
000120 8a d6 30 3e 08 e0 b9 bd 21 73 67 be d4 77 d6 bd
       0.1726934 -0.09075934 -0.22602512 -0.10472074
000130 d1 18 92 3d 64 fe 48 3e 33 f3 5a 3e 70 b3 14 be
       0.071336396 0.19628292 0.21381836 -0.14521575
000140 c5 79 09 be a1 8c e1 bd 37 44 39 3e f2 8e 64 3e
       -0.13425358 -0.11013151 0.18092428 0.22320154
000150 8c b0 43 3e dd 2a 23 3e a3 99 d9 bd 78 ac 91 3d
       0.19110316 0.1593432 -0.10625007 0.07112974
000160 6f 2c 55 be f1 7e 93 be 6d 8d 78 3e 27 85 85 3d
       -0.20817731 -0.28807786 0.242727 0.065195374
000170 a0 e4 ac bd 7c f5 f1 3d 8e 29 17 be be ca 40 3e
       -0.08442044 0.118144006 -0.14761946 0.1882734
000180 ba c6 a6 bd 75 bd 26 be d9 9f 89 3c cc e0 76 3e
       -0.08143373 -0.1628321 0.016799854 0.2410919
000190 1f 10 84 be 05 82 1b 3e fa c9 95 be 49 3f b8 bd
       -0.2579355 0.15186317 -0.29255658 -0.08996446
0001a0 7c 74 16 3d cc 50 47 3d 6b f0 a2 be 3c f3 24 3e
       0.036732182 0.04866104 -0.3182405 0.16108412
0001b0 ac e8 1f 3e 45 3c 19 3d 45 43 aa bd c3 ff 8b 3e
       0.15616101 0.037410993 -0.08313612 0.27343568
0001c0 6e 85 61 3e 3c a7 04 be 2c e0 b9 bd c3 8a 10 bd
       0.22023556 -0.1295442 -0.090759605 -0.035288583
0001d0 d5 ec a1 3e d8 e6 8b bd fb 9a a7 bd c0 05 23 3e
       0.31626 -0.06831139 -0.08183857 0.15920162
0001e0 6b 96 40 bc 74 1d fd bd 2d 6c 76 3e 63 0c 52 3e
       -0.011754612 -0.12359133 0.24064703 0.20512538
0001f0 d3 53 78 3d ff 8f 96 be 69 19 cb 3d e0 15 9d bd
       0.060626816 -0.29406735 0.09916956 -0.07670188
000200 a2 10 9e bd de 34 7f be 4a 39 85 be a0 80 cc 3d
       -0.07718016 -0.24922511 -0.2602027 0.09985471
000210 3f a4 9e be a8 db 7d 3e 20 7b 96 be 91 09 72 be
       -0.30984685 0.24790823 -0.29390812 -0.23636462
000220 d6 66 f2 ba e8 16 67 bd 4d c2 c0 bd 81 92 04 3e
       -0.0018493782 -0.05641833 -0.0941206 0.12946512
000230 46 ce 3c 3e 95 91 f3 bd 38 7b 5f 3e 63 e5 d1 bd
       0.18438062 -0.11893002 0.21824348 -0.1024883
000240 ec 8c 72 3d 96 ac b4 3d 3d 29 e6 bd c5 98 71 3e
       0.059216425 0.08821981 -0.11238334 0.23593433
000250 40 eb 35 3e bf 3f e3 3b a8 54 73 be f7 ef 0a bd
       0.17765522 0.0069350894 -0.23762763 -0.033920255
000260 45 19 9c be a7 7e 79 bd fd a2 e2 bd d9 7a 55 3e
       -0.3048803 -0.0609118 -0.11066244 0.20847644
000270 6e 45 45 be 0c 18 7b 3e e5 fb 56 3e 25 fc 4b 3e
       -0.19264767 0.24520892 0.20994528 0.19920404
000280 81 86 f2 3d 96 b4 84 be 94 f0 8d 3e e1 c5 70 be
       0.11842061 -0.25919026 0.2772261 -0.23512985
000290 31 0c ad be c4 37 e7 3d 32 8c 2f be 44 23 83 3e
       -0.33798364 0.11289933 -0.17143324 0.25612843
0002a0 6c 87 10 3e ca 3c a8 bc 90 47 0a 3e d1 27 34 be
       0.1411416 -0.020536799 0.13503861 -0.17593314
0002b0 3b 38 92 be 85 a3 1a bd 42 0a 3b 3d 51 da 54 be
       -0.28558525 -0.0377536 0.04566408 -0.20786406
0002c0 2e 06 66 be 76 74 f2 3d 81 5a c0 bd fc 02 23 3e
       -0.22463295 0.118386194 -0.09392262 0.15919107
0002d0 77 02 55 3d 26 71 72 3e 89 33 b7 bd 97 60 8c be
       0.052004304 0.23675975 -0.089453764 -0.27417442
0002e0 66 65 85 3d 4d 5d 18 be fe 68 42 3e a6 4a 1f be
       0.06513481 -0.14879341 0.18985364 -0.1555582
0002f0 c8 25 fe bd ea c6 df 3d cd 9b 9b be 36 cb c6 3d
       -0.1240955 0.10926612 -0.30392304 0.09706728
000300 c5 19 00 3e fe 41 db 3d 14 02 20 3d 34 8e fb 3c
       0.1250983 0.107059464 0.03906448 0.030707456
000310 13 06 c5 bd c2 b2 6b be c5 24 c5 3d d2 dd cb 3d
       -0.09620299 -0.2301741 0.09626154 0.09954418
000320 af 5f 99 bd ae 01 43 3d ba 62 d5 3d 7e ce 2c be
       -0.07488953 0.047609024 0.10419221 -0.16875646
000330 29 54 52 3e f7 52 fe bd 79 b9 96 3e f1 43 31 3e
       0.20539917 -0.12418168 0.2943838 0.17311074
000340 31 7c 3d 3e f0 aa 04 be 3c a4 29 be 02 00 e4 bd
       0.18504407 -0.12955832 -0.16566557 -0.11132814
000350 92 f2 a9 3c de a9 0e 3e 14 eb 8c bd ae 6f 65 3e
       0.02074555 0.13931987 -0.06880775 0.22405884
000360 f8 b7 21 3e 1c 21 35 3e f3 c2 83 3e 21 e9 3c be
       0.15792835 0.17688411 0.25734672 -0.18448307
000370 5c 83 88 3d ab cd 8d bd a7 e4 96 be 61 37 00 3d
       0.0666568 -0.06923994 -0.29471323 0.031302813
000380 6b 88 66 3e 30 e3 9e bd d3 45 3a bc 3e 4b 0a 3d
       0.22512977 -0.07758176 -0.011369186 0.033763163
000390 18 03 7e be 92 74 24 3e b4 41 da 3d c1 a0 08 bd
       -0.24805868 0.16060093 0.10657063 -0.033356432
0003a0 b6 bb 1d be 63 1c 6f be 56 e9 02 bb b1 68 9c 3c
       -0.15403637 -0.23350672 -0.0019975505 0.01909289
0003b0 32 31 f2 bd 8a f0 8c 3d 6f 4d ee bc b5 dc 4b 3e
       -0.118257895 0.06881817 -0.029089658 0.19908412
0003c0 25 d5 84 bd 9c ce 31 3c f6 b2 9d 3c d7 c6 46 3e
       -0.064859666 0.010852482 0.019250374 0.19411789
0003d0 98 9a 87 3e 9e fe d1 3d 47 aa 80 be f4 53 7c 3e
       0.26485133 0.102536425 -0.2512991 0.246414
0003e0 49 dd 0b be b3 66 58 be f9 27 e1 3c a8 5f 84 be
       -0.13658632 -0.21132927 0.02748488 -0.2585423
0003f0 31 52 f8 bb d6 32 2c 3e 77 12 c9 3c 7d c0 81 be
       -0.0075781574 0.16816267 0.024544938 -0.2534217

functional_1/dense_8_1/BiasAdd/ReadVariableOp:0 f4 [32]
000000 4a 9a a5 bc a2 d2 15 bd 77 df 27 bd 63 01 99 3b
       -0.020215172 -0.03657783 -0.040984597 0.0046693548
000010 6d e6 41 bc c7 4f b9 bb 18 29 08 bd 52 26 ea bc
       -0.011834723 -0.005655262 -0.033242315 -0.028582726
000020 fc 07 40 bb 38 5c d8 bc dd 93 21 bd a3 2f 86 bc
       -0.0029301634 -0.02641116 -0.039447654 -0.016380137
000030 6f 79 87 bb f7 73 4f bc 52 a1 b8 3d af bf 7f bc
       -0.004134349 -0.0126619255 0.090151444 -0.015609666
000040 2c 35 c1 3a cf 69 50 bc bc f3 17 3d ba 64 43 bc
       0.0014740578 -0.012720539 0.037097678 -0.011925871
000050 93 af 2a bd a4 5d a4 3b 38 c7 c3 bc dd 71 07 bc
       -0.041671347 0.0050160456 -0.023898706 -0.008266893
000060 68 4f ba 3c 71 4d 21 bd 98 7a 39 bd 96 bd 4d bc
       0.022742942 -0.039380495 -0.04528293 -0.012557408
000070 4f 46 49 bd 34 ce 22 bc 8d 42 3c bd 31 ce 11 bd
       -0.049139317 -0.009936858 -0.045961905 -0.03559703

functional_1/dense_7_1/Cast/ReadVariableOp:0 f4 [128, 64]
000000 80 8c 81 bb e3 0b b1 bc 04 b1 47 3e 65 7e 32 3e
       -0.0039535165 -0.021612113 0.1950112 0.17431028
000010 fa ee 38 3e a4 dc 34 3e ad 5f 2a be 9f e3 cc 3d
       0.18059912 0.17662293 -0.1663806 0.10004353
000020 a0 45 fe 3c f5 c5 2d 3d da 51 ec 3d e4 ec 03 3e
       0.03103906 0.042425115 0.115390494 0.12883335
000030 41 7b 03 3d 87 79 2b 3e 0e c9 89 3d 1f fb 39 bd
       0.032099966 0.16745578 0.06727801 -0.045405503
000040 e3 e1 04 3d 95 87 34 be f0 f0 52 3e 88 82 41 be
       0.032441985 -0.17629845 0.20599723 -0.1889745
000050 f1 d8 72 bd 7d 29 aa 3d 35 a9 c1 3d 7c 3f 34 be
       -0.059288923 0.083086945 0.09456102 -0.17602342
000060 78 d3 cd 3d a9 4c a9 bd 5b e7 a5 bd 58 60 29 3e
       0.100501 -0.08266575 -0.08100768 0.16540658
000070 d1 d3 45 bd 09 ba c4 3d 07 b9 1e bd c4 d5 03 be
       -0.048297707 0.09605796 -0.038750675 -0.12874514
000080 1e 2a 14 3c f2 21 b2 3d 23 3b 84 bd c8 b3 46 3e
       0.009043245 0.08697881 -0.06456592 0.19404519
000090 49 25 07 3e 17 71 94 3c 0a a8 43 3e 3e 44 a3 3a
       0.13197817 0.018120332 0.1910707 0.0012456251
0000a0 8a 14 28 bd d5 3a fe bd 46 a7 91 3d d2 3b 39 3e
       -0.041035213 -0.12413565 0.07111983 0.18089226
0000b0 aa 25 04 be 2f 00 04 3e ae c9 32 3e 3d 11 20 3e
       -0.12904993 0.12890695 0.17459747 0.15631576
0000c0 b8 83 0d be b1 e1 25 3e 24 97 97 bd 5f 86 9a bd
       -0.13819778 0.16199376 -0.07401875 -0.075451605
0000d0 71 d4 4e be c7 86 79 bd 41 69 e1 3d 08 96 36 3e
       -0.20198227 -0.06091955 0.11006404 0.1783067
0000e0 00 7a 43 3e 7b 87 01 bd bb 51 4d 3d fb 60 3f be
       0.19089508 -0.031623345 0.050126772 -0.18689339
0000f0 2b 31 ad bd 17 c4 e3 bd 5f 65 ea bc 89 87 e9 bd
       -0.08456644 -0.111213855 -0.02861279 -0.114028044
000100 35 7b 8e 3d 58 0b 4a be e9 f5 0d 3e d2 a7 d7 3d
       0.069570936 -0.1973089 0.13863339 0.10530056
000110 85 50 e3 bb 4b cd 31 3e ab 0f 51 be 24 25 2d bd
       -0.006937089 0.1736347 -0.20416133 -0.04227175
000120 07 80 78 bc 93 27 6d 3d 30 d8 16 3e f4 a9 37 be
       -0.015167243 0.05789907 0.14730906 -0.17935926
000130 08 6b 3a 3d 4c 89 e5 bd a8 d4 bd 3d 3d 18 a8 bd
       0.04551223 -0.11207828 0.092690766 -0.08207748
000140 49 84 e7 3d d2 e9 db 3c 83 c8 13 3e c7 f4 fc bd
       0.11304528 0.026844893 0.14431958 -0.12351375
000150 20 26 eb bd 32 81 62 be 78 f9 ab 3d 3c 43 2d 3d
       -0.11481881 -0.22119597 0.08397192 0.042300448
000160 a7 3f 07 be 52 cc 13 3a 8a fb 37 3e a3 fd 28 be
       -0.13207875 0.0005638051 0.17967048 -0.16503005
000170 81 6f ac 3d b5 de ef 3c a8 d2 45 3d 77 2d a6 3d
       0.08419705 0.029281 0.0482966 0.081141405
000180 95 3d 65 bb 07 b5 1d 3d d8 ca 12 3e 56 13 30 3e
       -0.0034979333 0.03850272 0.14335191 0.17194876
000190 c9 ff 2a bb 72 7a 75 3e 84 75 df 3c df 1d 19 3e
       -0.0026092401 0.2397249 0.027277716 0.14952801
0001a0 99 b8 42 3e ff 54 08 be 72 bc 65 3e 92 a8 93 3d
       0.19015731 -0.13313673 0.22435167 0.072098866
0001b0 b1 d5 b8 bd ec c9 82 bd c4 ca 0d bd 47 43 47 3d
       -0.090251334 -0.0638617 -0.0346172 0.048648145
0001c0 ab 8c 38 bd b4 4d 03 3e 76 01 e5 bd 6f 1a 3d 3e
       -0.045056026 0.1282261 -0.11181919 0.18467115
0001d0 7b 56 38 3e dc 9d 73 3c ec 9c b4 3d c9 f0 2b be
       0.1800174 0.01486918 0.08818993 -0.16791071
0001e0 fb 5e 6a 3e f3 c6 2e 3e b1 42 bc 3d 55 7d 08 3e
       0.22887795 0.1706808 0.09192408 0.1332906
0001f0 68 87 07 3e 1f 51 49 3c d5 f5 7c 3d 77 09 1b be
       0.13235247 0.012287407 0.06175788 -0.1514033
000200 e2 bc 26 3e ed a6 5e 3e 48 ac bc bc 54 39 fd 3b
       0.1628299 0.21743365 -0.023031369 0.0077277813
000210 5e fc f1 3d 3a 1b 1c 3e 0d 1d c4 bd c5 eb bc 3c
       0.11815713 0.15244761 -0.095758535 0.023061642
000220 82 7d 43 3e 93 7e 2e bc c3 77 fd 3d f2 3a 8b bd
       0.19090846 -0.010650295 0.12376358 -0.06798352
000230 fb f7 4a bd a8 6d 05 be ec 7d 24 3d 8c f5 2d be
       -0.0495529 -0.13030112 0.04015915 -0.169882
000240 00 0a bd bd 20 d2 ce bd 00 a9 01 3e 4f 7c bd 3d
       -0.09230423 -0.10098672 0.12662125 0.092522256
000250 f7 41 37 be 10 a8 a0 bb e4 c3 8f 3c 0b c1 33 be
       -0.17896257 -0.004902847 0.017549463 -0.17554109
000260 26 6d f4 3d 70 64 11 3e 8a 9c 36 bd 87 75 33 bd
       0.11934881 0.1419847 -0.04458288 -0.043813255
000270 8f b9 12 bd 06 cc 91 3d a9 80 41 3c be 95 a7 3d
       -0.035821494 0.071189925 0.01181046 0.08182858
000280 86 2c a6 3d ec 96 6e 3c 56 49 10 3e f7 61 34 3e
       0.08113961 0.01456235 0.14090475 0.17615496
000290 6f ba ac bd 16 1a 83 bd c8 24 b5 3d 0c b9 2e 3c
       -0.08433997 -0.0640146 0.08844906 0.010664236
0002a0 f1 7f f9 3d 9e 68 5a be b5 e8 dc 3d 3d 8b f6 3c
       0.12182606 -0.21328971 0.10786573 0.03009569
0002b0 f2 ac 13 3e ee 07 ee bd 37 a4 31 3e be 71 9e bd
       0.14421442 -0.11622606 0.17347799 -0.07736538
0002c0 a4 90 1b 3d 23 87 6a 3d 70 a3 68 3e fd 49 0b 3d
       0.037979737 0.057257783 0.22718596 0.034006108
0002d0 9a d6 3e be 1c 94 7e bd 43 95 36 3e 14 4f 24 3e
       -0.18636551 -0.062152967 0.17830376 0.16045791
0002e0 3c be ac bd 8e 0c 04 bd 85 b9 51 3e 7d 17 fe bd
       -0.08434722 -0.032238536 0.20480926 -0.12406824
0002f0 6c 3c f2 bd 09 8b 41 3e 90 88 53 3e b7 75 e9 3d
       -0.11827931 0.18900694 0.20657563 0.113994054
000300 15 3d 29 3d 9e 2e 46 3e 9b d8 82 3d f6 18 1a be
       0.041318018 0.1935372 0.063889705 -0.15048584
000310 3a 14 f4 bd 33 ad 0b bd 6a 44 56 3e 64 37 c5 3d
       -0.119179204 -0.034100723 0.20924535 0.096297055
000320 35 10 0f be 74 2b 90 3b 21 c8 b2 bd 36 67 db 3d
       -0.13971026 0.0043997113 -0.08729578 0.10713045
000330 7c 83 54 be 88 5d 5f 3e 11 52 de 3d 93 81 84 3d
       -0.20753282 0.21813023 0.10855497 0.06470027
000340 c2 29 00 3e cf a5 f0 3d 46 c5 7c 3c 10 2f 4c be
       0.1251593 0.117503755 0.015427893 -0.19939828
000350 97 87 9b 3d f1 21 f9 3d 6b fc 40 bd c7 1c 0d 3e
       0.07594221 0.12164677 -0.047115725 0.13780509
000360 18 2a 5e be ee 79 c3 bd dd 4f 2f bd be 7b b7 bd
       -0.21695745 -0.095447406 -0.042800773 -0.08959149
000370 b7 67 41 3e 8c df 9d 3c f7 f5 e8 bb 3c 00 e9 bd
       0.1888722 0.019271635 -0.0071093994 -0.11376998
000380 83 99 76 be 07 a4 b4 3d 4c 5d 4b 3e 92 58 02 be
       -0.24081998 0.08820348 0.19859809 -0.127291
000390 da 8a d9 bd c4 a8 51 bd 9f 34 06 3e a7 1b 1a 3a
       -0.10622187 -0.051186338 0.13106011 0.00058787543
0003a0 ea 1d 34 3e 20 83 d1 3d 02 22 2b be 93 56 ac bd
       0.17589536 0.10230088 -0.16712192 -0.0841495
0003b0 c7 d9 30 be 3f d4 08 3e b7 18 2c 3e 31 73 57 3e
       -0.17270575 0.13362215 0.16806303 0.21040036
0003c0 7b cb 34 bd 67 47 9f 3c c1 f6 02 3e 50 0e 24 3e
       -0.044139367 0.019443227 0.12789442 0.16021085
0003d0 ba 4b 85 bd 6d 50 19 3e a2 09 b4 bd 68 d7 15 3e
       -0.06508584 0.14972086 -0.087909 0.14632952
0003e0 47 51 db 3d e3 b8 4f bc 37 1d fc bd 89 62 0e be
       0.10708862 -0.012678358 -0.1231026 -0.13904776
0003f0 95 99 4d 3e 68 55 5a bd da 18 28 3e ad 9b c8 3d
       0.20078118 -0.053304106 0.1641573 0.09795318

functional_1/dense_7_1/BiasAdd/ReadVariableOp:0 f4 [64]
000000 37 50 91 ba c2 9a 44 3c 5e 11 1e bd 02 5c 81 bc
       -0.0011086528 0.011999788 -0.03859078 -0.015790943
000010 15 cb 99 3c 1c a5 43 bc bb c9 b6 bc de a7 c0 bc
       0.018773595 -0.011941221 -0.02231299 -0.023517545
000020 a4 c2 40 bc ff 6a 05 bb 64 a1 4b 3d cb 0a 56 3b
       -0.011765156 -0.0020357964 0.04971446 0.0032660242
000030 92 ec f9 bc bb 14 a6 3b c6 35 a8 bc 95 b1 c9 3c
       -0.030508313 0.0050683892 -0.020533454 0.02462081
000040 05 9e 86 bc f5 3e 0b bd 32 75 2a bd e1 09 e5 bb
       -0.016432771 -0.033995587 -0.041615672 -0.006989703
000050 be 01 d6 bb 4d b5 00 bd cf 1c 1c bc 7f 3d f3 bc
       -0.0065309694 -0.031422902 -0.009528353 -0.02969241
000060 4f 68 e4 bc 55 80 b6 3c 00 c3 a7 bc 14 57 0f 3d
       -0.02788177 0.02227799 -0.020478725 0.034995154
000070 9a eb e1 bc e0 21 98 bc dd 5d 74 bc 30 0b b6 bc
       -0.027578164 -0.01857084 -0.014914957 -0.022222131
000080 8c 51 47 bd 08 3c d4 bb e0 69 e8 3c 2e 58 17 bd
       -0.048661754 -0.006476883 0.028370798 -0.03694933
000090 26 13 ef bc 2c 95 d0 bc 0a c3 82 3c e5 d2 fb bc
       -0.029183935 -0.025461756 0.015962142 -0.03074021
0000a0 7a e1 9b bc 3e 01 ea bc aa 1f 94 3b df 1d 8e bc
       -0.019028414 -0.028565045 0.004520376 -0.017348228
0000b0 a2 f1 4c bd 0b bf e7 bc b3 c1 03 bc b9 a8 92 bc
       -0.050035127 -0.028289339 -0.008041787 -0.017902719
0000c0 31 89 d3 bc 9c b7 b4 bb ce d4 c6 3c 96 12 0d 3d
       -0.025822254 -0.005515052 0.024271395 0.034441553
0000d0 00 00 00 00 72 c4 b1 bc 5c e6 c9 bc 27 4d 48 3b
       0.0 -0.021700118 -0.024645977 0.0030563565
0000e0 30 3e 2c 3c c3 1f 12 bd 25 96 39 bc 51 cd 00 3d
       0.0105128735 -0.03567482 -0.011327301 0.031445805
0000f0 a6 89 bd 3c 40 54 34 bc 86 b0 46 3c 70 c8 f4 bc
       0.023136925 -0.011006415 0.012127047 -0.029880732

functional_1/dense_6_1/Cast/ReadVariableOp:0 f4 [16, 1]
000000 ae 2d ba 3f 89 40 ff bd f3 7c d2 3f 9f 5a cc be
       1.454519 -0.12463481 1.6444381 -0.39912888
000010 af 8a a6 3f 73 dd cb 3f 4c 54 c8 3f 9c 2b b3 3f
       1.3011073 1.5926956 1.5650725 1.3997684
000020 0a 51 54 be b8 a3 7d be ca 96 aa 3e c0 d4 ac 3f
       -0.20734039 -0.24769485 0.33318168 1.3502426
000030 68 d6 95 3f a0 5c 9f be 2a ce 28 3e 74 72 cf be
       1.1706057 -0.31125355 0.16484895 -0.40517008

functional_1/dense_5_1/Cast/ReadVariableOp:0 f4 [32, 16]
000000 ab 7c af 3e 25 81 8a be e5 9d 2e bb 27 a6 80 3d
       0.34274802 -0.27051654 -0.0026644405 0.06281691
000010 0e 46 c3 3e 1c a5 ad bd 31 ad e7 3e fe 7e be 3e
       0.38139385 -0.08478758 0.45249322 0.37206262
000020 03 1b a6 bd ea 11 8a 3e 20 20 6b bd b3 50 ed 3e
       -0.08110621 0.26966792 -0.057403684 0.4635063
000030 bf e9 bc be 15 7e d9 be bc fb b9 3d 47 d3 6c be
       -0.36897084 -0.42479005 0.09081218 -0.23127471
000040 c2 af cf 3e e6 a8 14 be a8 a1 ce 3e c9 e8 18 bd
       0.4056378 -0.14517555 0.4035771 -0.037331376
000050 80 c5 8b 3d 5b 12 e3 3d 4f 0c 87 be 48 71 c1 3e
       0.068247795 0.110874854 -0.26376578 0.3778174
000060 6f f9 1e 3d b3 d2 0f 3e bc 0f f2 3d 71 ec f0 3e
       0.038812097 0.14045219 0.11819407 0.4705539
000070 a1 12 69 3e db fd f9 3d 40 f1 68 be 28 d1 83 be
       0.22761013 0.12206622 -0.2274828 -0.2574551
000080 1f 1d 8a 3e 63 1f b2 3e a9 71 89 3e a8 90 1f bd
       0.26975343 0.3478957 0.26844528 -0.038956314
000090 c3 23 d1 bd 8d 1d c6 be 41 2b 2d be fa 86 3a bd
       -0.10211899 -0.3869442 -0.16911031 -0.04553888
0000a0 b3 5a e1 bd 49 92 18 be c7 25 cc 3e a3 f4 41 3c
       -0.11003628 -0.14899553 0.39872572 0.011838111
0000b0 35 76 c0 3d 62 d5 1b 3e 92 14 83 3e 12 56 d6 3e
       0.09397546 0.15218118 0.2560163 0.4186254
0000c0 55 97 bf 3e 51 4f 2f be 9b 1e cc 3d 43 9c 3b be
       0.37420145 -0.171201 0.09966775 -0.18321328
0000d0 44 97 59 be cd d6 a7 bd 73 3a 6b 3e c0 a8 bb bd
       -0.2124911 -0.08195267 0.22971515 -0.09163046
0000e0 80 51 b7 3e 78 c1 89 3e 7e 16 7a 3e bb 78 f9 bd
       0.35804367 0.26905417 0.24422643 -0.12181231
0000f0 5f 40 99 3e cf a9 dc 3e cd cb 8c be 26 48 ad 3e
       0.29931924 0.43098304 -0.27499238 0.33844107
000100 dd 51 b0 3e 4d 97 cf be b4 0b 49 ba 57 96 d3 be
       0.34437457 -0.4054512 -0.00076692854 -0.41325638
000110 0a 8b 07 be 05 f2 b1 3e f2 3b 74 bd 8b 97 b0 3e
       -0.13236633 0.3475496 -0.05962748 0.34490618
000120 be d9 27 bd 72 d3 5b 3e 87 04 c1 be d0 9f 94 bc
       -0.04097914 0.21467379 -0.37698767 -0.01814261
000130 ac 6a cd 3e 55 e9 3c bd e5 e2 af 3e 76 79 8d be
       0.40120447 -0.04612096 0.34352794 -0.2763173
000140 ed 0b 1d be d0 b9 8f 3d 9e 12 4f 3e e2 16 aa bd
       -0.1533658 0.07017863 0.20221946 -0.08305146
000150 c8 15 a9 3e cf 27 80 3d 8f b0 50 be 80 26 87 3e
       0.3302443 0.06257593 -0.20379852 0.2639656
000160 2b c8 51 3d 75 99 94 bd 76 6d 38 3e d4 c8 77 be
       0.051216286 -0.07255832 0.18010506 -0.24197704
000170 4d fc be bb 3e b3 c1 bb 83 e9 5f be 09 bb b6 3e
       -0.0058284164 -0.00591126 -0.21866421 0.35689571
000180 55 55 fe bd 4b 6a 99 bd 6d 54 5f bc d3 0f 83 3d
       -0.124186195 -0.07490977 -0.0136309685 0.063995026
000190 66 a8 c8 3e 84 c1 08 3e cc ce b5 be 62 26 5a 3d
       0.39190978 0.1335507 -0.35509336 0.05325926
0001a0 98 0a 16 bd d5 b5 30 3d 6e 9c 77 be 53 b9 b5 be
       -0.036631197 0.04314216 -0.24180767 -0.35492954
0001b0 a7 43 ce be be 9a a2 be 63 0e 94 be b2 b4 5c 3e
       -0.4028599 -0.31758684 -0.28917226 0.21553305
0001c0 64 27 44 3e 34 3d fc 3e 28 8c 87 be a3 70 f2 3e
       0.19155651 0.49265444 -0.26474118 0.4735156
0001d0 14 bd c3 bd 04 13 0c be 6c 89 af be 60 21 f7 3e
       -0.09557548 -0.13679129 -0.34284532 0.4826765
0001e0 2f de d2 be 28 ef 02 bf 07 b4 a6 be 34 75 bb 3e
       -0.41185138 -0.51146173 -0.32559225 0.36612856
0001f0 69 fb 83 3e 6c 1f ae 3d 89 fc a7 be d2 05 fb be
       0.25777748 0.08502087 -0.32809857 -0.49027878
000200 fb 23 f2 3e 3f bd ef be 4b 84 ba be b7 ad 7f be
       0.47293076 -0.4682407 -0.36429057 -0.2496861
000210 56 9c 73 bd a2 94 ce 3e 18 43 45 3e 38 22 66 be
       -0.059475265 0.40347773 0.19263875 -0.22473991
000220 6e 81 b0 be 58 13 d7 3d 36 c7 2a be 45 13 a7 3e
       -0.34473747 0.105017364 -0.16677555 0.3263189
000230 3e b7 c4 3d 19 d2 5a be 89 3a aa be e7 1d 0b 3e
       0.09605263 -0.21369208 -0.33247784 0.13585626
000240 be 77 56 3e ca ec b5 3e d2 d4 be bd f4 0a fd 3d
       0.20944116 0.35532218 -0.09317936 0.12355605
000250 06 ac 9f be 12 b5 9c 3e c2 98 da be 33 21 e9 3d
       -0.3118593 0.30606896 -0.4269467 0.113832854
000260 89 09 5b 3d c9 07 5b 3d d4 7c c7 be d1 73 5d be
       0.05347589 0.05347422 -0.38962424 -0.21626212
000270 6b 17 b2 be b2 69 21 3e 11 b0 e3 3c 91 b3 6b be
       -0.34783491 0.15762976 0.027793916 -0.23017718
000280 70 4f c9 bd 5c c2 89 3e 89 c3 05 3f 3e 7f d2 be
       -0.098296046 0.26906097 0.5225149 -0.41112703
000290 b8 58 2c bd fd 68 7e 3e d0 99 b4 3e 73 49 1a 3f
       -0.042076796 0.24844737 0.352736 0.60268325
0002a0 27 f2 6b 3e 8f 9a 6b 3e b7 0c 9d be dc 39 03 be
       0.23041593 0.23008178 -0.30673763 -0.1281504
0002b0 fa 29 2f 3f 3a 8c 17 3e 5d e4 00 be 1d d6 ba 3c
       0.68423426 0.14799586 -0.12587114 0.022807175
0002c0 48 0b c8 bd be 8b d6 3e c3 83 00 bf 98 bd 98 be
       -0.09767777 0.4190349 -0.5020105 -0.2983215
0002d0 4f 93 b4 be d3 1d 1b 3e 4b f0 e2 3e 00 6a 20 bf
       -0.35268638 0.15148096 0.44323954 -0.62661743
0002e0 48 84 13 3e 5e 86 a6 3e 3c 07 c3 bd c7 33 5c 3e
       0.1440593 0.3252439 -0.09522864 0.21504126
0002f0 7b f6 c8 be 7e d3 3e be 5c c6 16 3e 90 56 1f 3e
       -0.3925055 -0.18635365 0.14724106 0.15560365
000300 f3 a4 95 3e a8 ed 03 3e 11 25 c5 3e 86 07 a0 3e
       0.2922741 0.12883627 0.38504842 0.3125574
000310 42 01 1b be 21 51 94 3e 9c df cb 3e 9c 93 48 3e
       -0.15137199 0.28968146 0.39819038 0.19587559
000320 74 c0 91 3e a0 03 9a 3e ca 2b 6e 3e b4 97 43 3e
       0.28467143 0.3008089 0.23258892 0.19100839
000330 30 52 5c be 65 b5 8a be 14 84 9d be d1 a7 71 be
       -0.21515727 -0.27091518 -0.3076483 -0.23599173
000340 1a 3e dd bd c5 58 dd 3e 53 ec e7 be 22 d4 e9 3e
       -0.108028606 0.43231788 -0.4529749 0.45669657
000350 b2 2d ad 3e 73 b4 aa be e1 55 8e 3d a0 9f ec bc
       0.33823925 -0.33340797 0.06949974 -0.028884709
000360 db 81 86 3e 5f 7f ae 3d e8 90 93 be a5 e8 aa be
       0.26270947 0.08520388 -0.28821492 -0.3338062
000370 22 e8 fd 3b 57 cc 73 be b1 11 45 3d 26 f5 d6 be
       0.0077486197 -0.23808418 0.048112575 -0.41983908
000380 1e 3d 9b be cf 28 3a be 09 4e 6d be a9 4a 84 be
       -0.30320066 -0.1817963 -0.231743 -0.2583821
000390 10 1d 34 3d 3d b8 7d be 43 34 9c be 98 99 af be
       0.04397303 -0.24777313 -0.30508623 -0.3429687
0003a0 29 8c 14 3e 8c 28 ae 3e 42 03 36 3e a2 a6 9c 3e
       0.14506592 0.3401531 0.1777468 0.3059588
0003b0 0b 79 42 3e ca 03 81 be 52 38 5b 3e de d7 84 3e
       0.18991487 -0.25198203 0.21408203 0.25945944
0003c0 6c 9b e8 3d 3b 17 d4 be 54 2b f6 3d 68 ef 82 bd
       0.11357769 -0.41423973 0.12019983 -0.06393319
0003d0 7a fc 02 3e 2d 09 a1 3e 0e d2 2e 3e 3f 14 c8 be
       0.12791625 0.31452313 0.17072317 -0.39077947
0003e0 26 ee 6e 3e 97 fd 86 3e 40 30 fc bd 36 81 38 3e
       0.23333034 0.2636535 -0.123138905 0.1801804
0003f0 78 6f ae bd ed 41 c8 3e 17 94 d4 be 42 aa 82 be
       -0.08517355 0.39112797 -0.41519234 -0.2552052

functional_1/dense_5_1/BiasAdd/ReadVariableOp:0 f4 [16]
000000 4f 13 1f 3d 7e bc 57 bd 25 2e 82 3d 8a bc c9 bc
       0.038836773 -0.052669995 0.063564576 -0.024626035
000010 93 89 a8 bc 07 80 51 3d a2 4e 16 3d 05 a7 cc bc
       -0.020573413 0.051147487 0.036696084 -0.024981985
000020 cb f9 3e bd 9c d7 19 3d 00 00 00 00 a7 b7 a7 3d
       -0.04662494 0.037559137 0.0 0.08189326
000030 3c 77 44 3d c3 45 f7 bc 3c 62 ad 3c f7 e8 22 bd
       0.047965273 -0.030184632 0.021165006 -0.039772954

functional_1/dense_4_1/Cast/ReadVariableOp:0 f4 [64, 32]
000000 eb 60 9e 3e e4 a6 41 be 4d 6d 4e 3e a1 6d a2 be
       0.30933318 -0.1891132 0.20158882 -0.31724265
000010 e0 6a fc 3d 56 1b 95 be 17 60 1a be 78 a7 ad be
       0.12325072 -0.29122418 -0.15075718 -0.3391683
000020 1b b6 38 3e 7d ca 89 be 97 69 0d 3e 1e 76 19 3e
       0.18038218 -0.269123 0.1380981 0.14986464
000030 4d 77 95 bd 82 29 d8 3d 36 af ab bd ea 0c b6 bd
       -0.072981454 0.10554792 -0.08383028 -0.08889182
000040 0a 6d a7 3d 04 86 81 be 32 62 d7 bd 95 79 24 3e
       0.081750944 -0.25297558 -0.10516776 0.16062005
000050 6d f1 81 bd 9f 6c 0f 3d e6 d6 98 3c c8 25 8b be
       -0.063448764 0.0350157 0.018657159 -0.27177262
000060 31 c8 03 be 86 f0 b0 bd 36 67 0f bd 87 7e 09 3d
       -0.12869336 -0.08639626 -0.03501054 0.03356793
000070 90 3e 83 3c 52 71 93 3e db 3f 50 bd 4f 2f 5b bd
       0.016021043 0.28797394 -0.050842147 -0.053511914
000080 74 f2 2e 3c 27 20 d4 3c 0a 52 87 3e a7 40 91 bd
       0.0106779225 0.025894238 0.26429778 -0.070924096
000090 0a 15 f4 3d 61 e1 bf 3d a0 54 82 be b1 0e 73 3e
       0.119180754 0.093691595 -0.2545519 0.23736073
0000a0 cc 79 5d be 10 16 ae bc 6f aa 36 be d3 a5 5d 3e
       -0.21628493 -0.021250755 -0.17838453 0.21645288
0000b0 26 cc 64 be a2 4f 80 3e 31 96 43 bc 44 03 7f be
       -0.22343501 0.25060755 -0.011937664 -0.2490359
0000c0 5e 0c 02 be 06 16 20 3e 89 be a7 bd e8 ac 91 3e
       -0.1270003 0.15633401 -0.081906386 0.2845223
0000d0 c4 21 ab 3d 1a 5c 5e 3d ca f8 91 be dc e8 0b be
       0.0835605 0.054287054 -0.28510123 -0.13663048
0000e0 a5 80 0a be 20 47 54 be 82 be 63 be 83 4a c5 3d
       -0.13525636 -0.20730257 -0.22240642 0.096333526
0000f0 f2 75 07 be 07 b4 54 3d a0 ad 81 be 9c 39 c3 bd
       -0.13228586 0.0519295 -0.25327778 -0.095324725
000100 e7 9a 2e 3e e0 b2 12 3e 5e 76 13 be b1 bf c9 3c
       0.17051278 0.14326048 -0.14400622 0.024627538
000110 65 bd 8d 3e b9 c8 2e bd 0d d2 26 be 2b ec 93 be
       0.2768356 -0.042671893 -0.16291066 -0.2889112
000120 bd df b0 3d 3a 62 db 3d 2e a8 d9 bc 8a 10 da 3d
       0.08636425 0.107120946 -0.026569452 0.10647686
000130 93 cc 3c be 72 2a 9b be 93 4e 53 be 9f ba 97 be
       -0.18437414 -0.3030582 -0.20635442 -0.29634568
000140 bc 14 eb bc 4f ad 1e 3e af 53 93 be 9d 3f a3 be
       -0.02869641 0.154958 -0.28774783 -0.3188447
000150 5a 0b 66 3d c4 1f c6 bc 3c 69 f8 3c d8 c4 49 3e
       0.05616317 -0.024185069 0.030323617 0.19703996
000160 2b 00 27 be aa 1b 52 3e 09 ad 54 3e 87 1f 70 be
       -0.16308658 0.20518366 0.20769133 -0.23449527
000170 f8 b8 04 be e7 97 e4 3d 0e f5 7d be ce b7 1e 3c
       -0.12961185 0.111617856 -0.24800512 0.009687377
000180 ce 67 df 3d 36 e5 90 bd 86 f3 48 be 50 48 55 be
       0.10908471 -0.070749685 -0.19624147 -0.20828366
000190 29 ba 62 3d 00 5e 7e bd f8 1d 12 be a5 67 25 3e
       0.055353317 -0.062101364 -0.14269245 0.16152819
0001a0 4d 90 14 be 97 af 35 be d2 d6 95 3e 94 c4 25 be
       -0.14508171 -0.17742763 0.29265457 -0.1618827
0001b0 f0 a9 c4 bd af 1f 18 be 06 d4 31 3d 8c 73 29 3e
       -0.096027255 -0.14855836 0.043415092 0.16547984
0001c0 62 bb 03 be 1e 2b a0 be 7e e7 53 be 7b 13 72 3d
       -0.1286445 -0.31282896 -0.20693776 0.05910061
0001d0 13 c4 fc 3b 14 94 b5 3b 63 75 0b be 35 20 9b bd
       0.0077138036 0.005541334 -0.13618998 -0.075745024
0001e0 3c 73 e2 3d ca 3a 5d be e9 38 da bd 2b a1 3c 3e
       0.110571355 -0.21604457 -0.10655386 0.18420856
0001f0 35 46 7d be 03 e9 8b be 71 c4 23 be fe 67 c8 3d
       -0.24733813 -0.2732621 -0.15992905 0.0978546
000200 1c 00 96 bd 11 c1 87 3d 7a b4 91 be 7c 97 96 3e
       -0.073242396 0.06628621 -0.28458005 0.29412448
000210 ee c7 af bd b9 b1 bb 3c dd 1f 97 be f4 28 96 bd
       -0.085830554 0.022911893 -0.29516497 -0.0733203
000220 7e b6 77 bd d0 cb f5 bd 23 77 30 3d ed 94 4c be
       -0.060476772 -0.12001765 0.043082368 -0.19978686
000230 be 2a 18 3e 79 20 2d be 68 e9 1e bc b7 da 9b 3e
       0.14860055 -0.16906919 -0.009699203 0.30440304
000240 a4 8f 5b be 1e b6 9b bd 26 e6 ca bd 18 fd 12 3e
       -0.21441513 -0.076030955 -0.099071786 0.1435436
000250 72 d7 e7 3d 8c bb 89 3e 3e 50 9a bd ce fb 7c be
       0.1132039 0.269009 -0.07534836 -0.24705431
000260 3e f5 70 3e 4e 7c 45 3e a2 d1 29 be ad 7c 26 be
       0.23531052 0.192857 -0.16583875 -0.16258498
000270 6f db 06 be 32 5d e2 bd de c9 5a 3e 4e 66 84 be
       -0.13169645 -0.11052932 0.21366069 -0.25859302
000280 9b d4 04 be a4 ba ad 3c c3 aa 87 3e c5 4d db 3d
       -0.12971728 0.021207161 0.26497468 0.10708193
000290 18 8a 98 bd 90 2c 0f 3e c0 46 8a bb 84 13 8f be
       -0.07448214 0.13981843 -0.00421986 -0.27944577
0002a0 7f 6d 08 3d 38 9b 19 3e 1c 72 14 be cd e2 1c 3e
       0.03330755 0.15000618 -0.14496654 0.15320893
0002b0 f9 f6 8b 3d 41 7c 20 be 5e cb ea 3d 88 52 ef 3d
       0.06834216 -0.15672399 0.114645705 0.116856635
0002c0 61 ef bd bd de bf 5a 3e 91 b5 6a be 9c 83 0e be
       -0.092741735 0.21362254 -0.22920825 -0.13917392
0002d0 25 02 5a be d0 ea cc 3c 56 eb 01 bd 6d d7 63 3e
       -0.2128988 0.025014311 -0.031718574 0.22250147
0002e0 7c b1 32 bd 9e 19 ef bd 52 28 d8 bc c6 0c 8d bd
       -0.043626294 -0.11674808 -0.026386414 -0.06887202
0002f0 0a e6 74 3e 60 a9 1b be 98 93 8e be 00 37 58 bc
       0.23915878 -0.1520133 -0.2784698 -0.013196707
000300 e0 9c 13 3d c3 c6 ca bd 70 e1 22 3e 59 ca 2a bd
       0.03603828 -0.09901192 0.1590631 -0.04169688
000310 a4 33 f3 bb ce 39 b8 be a3 38 93 be 24 f7 97 be
       -0.0074219275 -0.359816 -0.28754148 -0.2968074
000320 79 d6 61 3e 64 06 54 3e 39 93 82 3d 38 9f a7 bc
       0.22054471 0.20705563 0.06375737 -0.020461664
000330 94 88 49 3e 3c 01 9a be 87 81 3b 3e 34 fd f1 3d
       0.19681007 -0.30079067 0.1831113 0.11815873
000340 c4 15 99 be ba 06 e1 bc 92 c1 89 be 4e 0e 21 3d
       -0.29899418 -0.027469028 -0.26905495 0.039320283
000350 e1 1a 59 be 36 e1 30 be 92 19 3c be 2f fc 6a bb
       -0.2120166 -0.17273411 -0.1836913 -0.003585588
000360 d9 d7 07 be 4f 2a 32 3e dc 14 9b be 1b 9e 22 be
       -0.13265933 0.17398952 -0.30289352 -0.15880625
000370 3e 08 51 be ae 6a 95 3d 03 18 4f 3e d4 5b 19 be
       -0.204133 0.07295738 0.20224003 -0.14976436
000380 1e 91 4e 3e e6 6f 39 be 1b ea 6a 3e 25 c6 96 3d
       0.20172545 -0.18109092 0.22940867 0.07362012
000390 0d ac 1f 3d 59 d8 44 3e 95 e2 66 3e 50 b6 ea bd
       0.03898244 0.19223155 0.22547372 -0.114605546
0003a0 bc 29 1b be 8c 00 9e bd 33 5a 48 bc 57 59 b6 bd
       -0.15152639 -0.07714948 -0.012228536 -0.08903759
0003b0 66 03 f3 bd 59 7e 21 3e 3a d1 ed bd 4d c8 89 be
       -0.118658826 0.15770854 -0.116121724 -0.2691063
0003c0 2a 64 9a bd d0 59 d0 3c 96 dc 80 be e1 7e 72 bd
       -0.07538636 0.025433451 -0.25168294 -0.059203032
0003d0 72 89 41 3e 77 60 62 bc 17 08 be bd 95 b4 a2 bd
       0.18900087 -0.013816944 -0.09278887 -0.079445995
0003e0 07 1c 4c 3e 4d a8 65 be 61 4a aa 3d 0b 60 79 3e
       0.19932567 -0.22427483 0.08314968 0.24353044
0003f0 8e 92 59 3e 6c e0 00 3e b1 7f f0 3d fa 53 c1 bd
       0.21247312 0.1258561 0.11743105 -0.094398454

functional_1/dense_4_1/BiasAdd/ReadVariableOp:0 f4 [32]
000000 fe cd bd 3b a1 36 32 bb 4c 73 0e 3b c1 5d df bc
       0.0057923784 -0.0027193206 0.0021736203 -0.027266385
000010 44 7e bb 3b 92 03 f0 bc 88 01 c4 bb 85 cf 05 bd
       0.005721839 -0.029298577 -0.005981628 -0.03266861
000020 b0 42 4e ba 54 e6 a1 bb 44 46 50 3c ec c0 64 3c
       -0.00078682136 -0.0049407873 0.012712065 0.013962012
000030 86 07 eb 3c 20 0e a6 bc 30 61 73 bc 00 00 00 00
       0.02869011 -0.020270407 -0.014854714 0.0
000040 de a0 1e bc 5b 6a 87 bc 97 63 01 bd de 11 96 bc
       -0.009681908 -0.016530206 -0.031589117 -0.018319067
000050 fe 44 60 3b d6 d4 7c bd a6 e1 a6 3a f7 9d ba bc
       0.003422081 -0.061726414 0.0012732043 -0.022780402
000060 15 d3 29 3c 66 d7 47 bd 0d 88 99 bb 5d c7 d2 3c
       0.010365267 -0.048789404 -0.004685408 0.02572983
000070 00 00 00 00 8e 34 74 bc f1 17 d4 bc 71 9e c4 3b
       0.0 -0.014905108 -0.025890322 0.006000333

functional_1/dense_3_1/Cast/ReadVariableOp:0 f4 [128, 64]
000000 9a 40 1b 3e df 3b 90 3d 4b 0f 7e 3b 2d 43 07 3e
       0.15161362 0.070426695 0.003876644 0.1320922
000010 45 dd 17 3e 90 08 5a 3d ef 50 e2 3d 5c a6 21 3e
       0.14830501 0.053230822 0.11050593 0.15786117
000020 f9 6d 0f be 24 3a b3 3d 37 a3 f4 bd 76 c8 d3 3d
       -0.14006795 0.08751324 -0.11945193 0.10340969
000030 a3 b5 46 bd 8d c8 9a bd 44 9d 03 bd 9a 1e 26 be
       -0.048513066 -0.07557783 -0.032132402 -0.16222611
000040 76 00 e6 bd 4a 71 6e bc fd 9a 2f 3e 74 7d 7c bd
       -0.11230557 -0.014553377 0.17148967 -0.06164308
000050 1f a7 1a 3d 04 12 3e bd 05 43 47 3e e6 bc 02 3e
       0.037757035 -0.0464039 0.1945916 0.12767372
000060 90 28 37 be 4e 3d 1d bd 5b c6 27 3e 72 8c 4b be
       -0.17886567 -0.038388543 0.1638426 -0.19877794
000070 27 fe 5d 3e 9e c9 a2 3c 36 2d 12 3e 71 a7 40 bc
       0.21678983 0.01987153 0.14275059 -0.011758671
000080 49 ae 22 be 0a 5c 21 be f7 c9 2c 3e 98 b6 55 3e
       -0.15886797 -0.15757766 0.16873918 0.20870435
000090 24 39 f8 bd b4 2b 18 bd 13 d4 34 3e a5 7e e9 3b
       -0.12120274 -0.037151054 0.17659025 0.007125693
0000a0 67 07 89 3d 5a 6e c8 bd e1 cd a9 3d 46 8e d4 3d
       0.06690865 -0.09786673 0.082912214 0.10378699
0000b0 93 f2 22 3c 51 a4 14 3e ac f7 52 be ff d2 37 be
       0.0099455295 0.14515807 -0.20602292 -0.17951582
0000c0 08 30 56 3d f9 50 ef bd 50 40 cb bd a6 02 25 be
       0.0522919 -0.11685366 -0.09924376 -0.16114292
0000d0 ad a4 5b 3e 85 3a bc bc 95 37 ac 3c b2 e7 a8 3d
       0.21449538 -0.022977123 0.021022597 0.082473174
0000e0 b0 25 5d 3d ae e3 0d 3e a2 45 83 3e ed f0 03 3e
       0.05399102 0.13856384 0.25639063 0.12884875
0000f0 60 17 40 3e dd 9c 01 3e 0b 30 85 3d ef f0 13 be
       0.18758917 0.12657495 0.06503304 -0.14447378
000100 8f 6f a5 bd 19 57 d5 3d ca f2 97 bd e4 c7 c7 3d
       -0.08077919 0.10417003 -0.07419355 0.09754923
000110 08 6a 94 bd 09 59 a6 3c 06 28 3f be 0f 76 71 3d
       -0.07246786 0.020306127 -0.18667611 0.05895048
000120 c3 95 55 be 34 a6 3a 3e bb 71 4d be 38 fa 38 3e
       -0.20857911 0.18227464 -0.20062916 0.18064201
000130 dc f1 4d 3d ff f1 2f 3d b2 fa 10 be 6f a4 3c 3e
       0.050279483 0.042955395 -0.14158133 0.18422101
000140 dc 73 a3 3d f6 5c a5 bd 04 23 0e be be 4f 7f 3e
       0.07981083 -0.080743715 -0.13880545 0.24932763
000150 f9 41 4e be b8 60 5c 3e 12 fd 58 bd 14 d9 6c 3d
       -0.20142354 0.2152127 -0.05297572 0.05782421
000160 4f ae 4a be b5 8f d7 bc 38 64 44 bd f6 c4 2d 3e
       -0.19793056 -0.026313642 -0.04794714 0.16969666
000170 81 b0 0e 3d 74 ef 4c bd 22 c9 b5 3c b1 74 40 3e
       0.034836296 -0.050033048 0.022190634 0.18794514
000180 b9 b0 0a 3b b9 ca db 3d 23 aa 05 be 56 17 b4 3d
       0.0021162464 0.10732026 -0.13053183 0.087935135
000190 32 38 ed bd 65 e3 a0 bd 45 c5 82 3c 5e 67 94 be
       -0.11582984 -0.07855872 0.015963206 -0.28985113
0001a0 d9 1b 16 be 70 2e 06 be 84 28 14 3e 3d 4f ca 3c
       -0.1465906 -0.13103652 0.1446858 0.024695987
0001b0 8b ce 22 3e df 08 56 3e 2c 58 b4 bd 73 19 72 be
       0.15899102 0.20901822 -0.0880588 -0.2364252
0001c0 c2 05 13 be b3 63 c4 bd 6e ac 10 be 14 30 50 3e
       -0.14357665 -0.095893286 -0.14128277 0.2033084
0001d0 5a 01 25 be 2b a6 1e 3e 9d a1 3c 3e 02 74 55 3e
       -0.16113797 0.15493076 0.18421026 0.20845035
0001e0 0d df e9 3d 23 7b 11 be da 4e 12 bd 89 8c 63 bd
       0.11419497 -0.14207129 -0.03571973 -0.055553947
0001f0 81 7b 8a 3d 97 0c b0 bd 76 92 df bd c1 bc 44 be
       0.06761838 -0.08596151 -0.10916607 -0.19212629
000200 d0 b0 59 3e b9 c7 0e 3e 61 78 50 3e d5 63 b1 bd
       0.21258855 0.13943376 0.20358421 -0.086616196
000210 00 ce 47 bd 6e e7 d1 bd 4f 5b 57 be d3 a0 a8 3d
       -0.04878044 -0.1024922 -0.21030925 0.082338
000220 61 c7 bf bd 1b e4 a5 3d 70 80 98 bd eb 01 d4 bd
       -0.093642004 0.08100148 -0.074463725 -0.10351928
000230 35 f2 21 bd ae 9e 33 3e 4a 55 ed bd e4 c2 b9 3d
       -0.039537627 0.17541 -0.11588533 0.090703756
000240 16 77 28 3e 0b 49 49 bd d8 aa 89 bd 83 f7 c0 bd
       0.16451678 -0.049141925 -0.06722039 -0.09422209
000250 43 0f be bd c8 68 58 bd 39 d1 90 3d ca cc ae 3c
       -0.09280255 -0.052834302 0.07071156 0.021337885
000260 f3 80 f3 bc 77 eb 45 be ea 3a 33 bc e2 13 d2 bd
       -0.029724574 -0.19328104 -0.010939339 -0.102576986
000270 ca 63 05 be c8 4d 04 3e 4c a6 9b 3d 27 5a d0 bd
       -0.13026348 0.12920296 0.07600078 -0.10173445
000280 e8 c1 20 be c1 e4 eb bd 45 25 58 be 95 41 79 3d
       -0.1569897 -0.11518241 -0.21107967 0.06085356
000290 10 41 de 3d ce 0b c9 3d a4 86 ed 3c 23 27 17 be
       0.108522534 0.09816705 0.028994866 -0.14761023
0002a0 e9 92 9c bd f9 15 5d be ac 2f ab 3d a6 49 3c be
       -0.076452084 -0.21590413 0.08358702 -0.1838747
0002b0 88 4b ef bd 26 e6 10 be 6f 29 a1 bd bd c5 f4 3d
       -0.11684328 -0.14150295 -0.07869231 0.11951778
0002c0 d0 f4 0f 3d 48 50 48 3e f0 69 29 be 7a 07 21 be
       0.03514558 0.19561875 -0.16544318 -0.15725508
0002d0 e1 88 37 3e 06 6e 69 be 7d d4 f0 bd e9 4e 34 3e
       0.17923309 -0.22795877 -0.11759279 0.17608227
0002e0 22 4b 2a be fc c8 88 3d ff da 0d bd 46 1d 1c be
       -0.16630223 0.0667896 -0.03463268 -0.15245542
0002f0 4c 68 8c bd 46 7b 1d 3e 5a dd 8d 3c de ad 00 bc
       -0.068558306 0.15379056 0.017317463 -0.007853953
000300 4e 63 16 3b c2 15 77 be 3e db 5c be 92 62 dd 3d
       0.0022947374 -0.24129394 -0.2156801 0.108098164
000310 c0 7d 3b bc 82 1c a4 3d 08 0b 01 3e c5 20 1a bb
       -0.011443555 0.0801325 0.12601864 -0.0023518067
000320 ce 93 3e be 81 1e 07 3e 6c c7 1a be 89 c5 26 3e
       -0.1861107 0.1319523 -0.15115136 0.16286291
000330 25 98 98 bd 9f 0a 3c 3e 53 a4 46 be 60 a1 2b 3e
       -0.07450894 0.18363427 -0.19398622 0.16760778
000340 37 23 fb bd 29 cf 3b 3e 5e 4f 63 be 40 9a 20 bd
       -0.12262576 0.18340744 -0.22198245 -0.039209604
000350 cc 19 64 be 5e 47 22 be fd cd ba 3d ba b9 51 be
       -0.22275466 -0.15847537 0.091213204 -0.20481005
000360 51 b8 39 be c1 87 03 be e0 2d d3 bb d0 f5 59 3c
       -0.18136717 -0.12844755 -0.0064446777 0.013303235
000370 b5 b7 b9 bb 09 15 37 be 93 75 3b bd c8 a7 d1 bd
       -0.0056676515 -0.17879118 -0.045766424 -0.1023708
000380 a3 be 5f 3e 13 0a df 3d c5 b9 f4 bc 5e 54 c0 3d
       0.21850066 0.108905934 -0.029873738 0.09391092
000390 77 69 a8 bd 5a 0a 37 be 2b d5 5d 3e 91 04 60 be
       -0.08223241 -0.17875043 0.21663348 -0.21876742
0003a0 9d a5 f5 bd 95 ce 19 3e 19 6c cb bd 6a 50 05 be
       -0.11994479 0.15020211 -0.09932727 -0.13018957
0003b0 9f 03 94 3e c9 1b f5 bd 78 b6 de bd 7f fc b2 3c
       0.28909013 -0.1196819 -0.10874647 0.021848915
0003c0 8a 1d 26 3e 2d d7 1d 3e 31 61 29 be 0a e2 f4 bd
       0.16222206 0.15414114 -0.16540982 -0.11957176
0003d0 f0 fd 60 3e 96 69 39 3d f6 e5 3d 3e a2 27 e5 3d
       0.2197187 0.04526671 0.18544754 0.111892
0003e0 9f d1 80 3d 35 b4 20 be 95 1f 88 bd c1 4c f5 bc
       0.06289982 -0.15693744 -0.06646649 -0.029943826
0003f0 e1 ec 87 3d da 9d d8 3c ad 29 4b 3e 69 a1 06 be
       0.06636978 0.026442457 0.19840117 -0.1314751

functional_1/dense_3_1/BiasAdd/ReadVariableOp:0 f4 [64]
000000 3f c1 b1 3c c8 ae 69 3c d0 40 31 3c 88 d7 f9 3b
       0.021698592 0.0142628625 0.010818675 0.0076245703
000010 6b a5 0c bb 36 d9 16 bd 1a e4 3a bc 78 a3 73 bc
       -0.0021460901 -0.036828242 -0.011406923 -0.014870517
000020 1d 50 d1 bb be a0 18 bd 52 3a a8 bb 1b ab b6 bb
       -0.006387724 -0.03726267 -0.0051339054 -0.0055745966
000030 ad 9a b1 3c d9 b4 99 bc 4c 5b 41 bd 40 55 be 3c
       0.0216802 -0.018762993 -0.047206208 0.02323401
000040 9e 84 6a bc ba 53 11 bd 7f b3 9c bc d8 f4 c7 3b
       -0.014313845 -0.03548024 -0.01912856 0.0061021857
000050 14 90 ff bc 3f 0f 07 bd f4 7f 8e bc 5e d2 b2 3c
       -0.031196631 -0.032973524 -0.017394997 0.021828827
000060 c0 9e 42 3c 70 a7 4a bc 61 4b 64 bc 1c 62 d0 3c
       0.011878669 -0.012369022 -0.013933987 0.025437407
000070 50 fd 76 bc 1a 4e 82 3c a1 5c 82 3c 79 95 6c bc
       -0.015075043 0.015906382 0.01591331 -0.014439934
000080 49 79 87 3c fe 3e 87 bc 5a 07 be bb d5 9c a9 3c
       0.016537325 -0.01650953 -0.005799216 0.020704666
000090 e6 95 6f 3c 83 20 1f bd 2d 7d 99 bc 7c ea 99 bc
       0.014623141 -0.038849365 -0.018736446 -0.018788569
0000a0 0e a0 13 bd e6 ed 2f bc e7 98 91 bc 81 0d e0 bb
       -0.036041312 -0.010737872 -0.017773105 -0.0068375473
0000b0 59 6e 22 3c a3 0a cb bc e8 df 94 bb 79 37 81 3c
       0.009914004 -0.024785345 -0.0045432933 0.015773522
0000c0 3e 9b f3 3c bb 0d 7d bc fa 91 b1 3a b1 ca 0a bc
       0.029737111 -0.015445168 0.0013547533 -0.008471177
0000d0 39 c1 44 ba 10 1a 89 bc ce be b6 bc 1b 6a dd 3c
       -0.0007505599 -0.01673606 -0.02230778 0.027028134
0000e0 cf 2b 0b 3d 71 ec 29 bd 14 19 a5 bc 20 3e fc bb
       0.033977326 -0.041485254 -0.02015356 -0.0076978356
0000f0 1b 14 8f bc 51 c6 2e bc ad 98 c1 3c 0b fe f0 bb
       -0.017465642 -0.0106673995 0.023632372 -0.007354503
